data.pth (torch, 9322 bytes, 6 tensors)

l1.weight f4 [8, 129]
000000 eb 53 e6 3e 30 1d 97 be cc ce d6 3e 06 54 f4 3d
       0.449859 -0.29514456 0.41954648 0.11930089
000010 4c 1a 81 be 41 cf 0b 3f 0e 59 82 3e 63 33 14 bf
       -0.25215375 0.5461312 0.25458568 -0.5789091
000020 9c a8 25 bd d9 b1 a4 3d cc 21 95 3e f1 07 06 3f
       -0.040444 0.08041734 0.29127347 0.5235587
000030 9b 09 ed bd 5f 9b 72 3e 75 6b 30 bd 2f a0 d3 3e
       -0.11574098 0.23692082 -0.04307123 0.41333148
000040 62 62 c9 3e dd 64 c4 3e f6 cc 6e be 6d a0 ac bd
       0.39332873 0.38358203 -0.23320374 -0.08429036
000050 55 92 28 3e 7b f0 9a 3e 77 13 5a 3f 07 25 7b 3e
       0.16462071 0.30261597 0.8518595 0.24525844
000060 05 9f b2 3e f6 1a 6d 3e dc 4b 53 3e e0 8a ad 3b
       0.34886947 0.23154816 0.20634407 0.005296096
000070 be 1d 74 be 1d c4 09 be c0 a3 e1 3d f1 b4 6a 3a
       -0.2383947 -0.13453718 0.11017561 0.0008953354
000080 ea 6b 27 bd 92 76 b4 bd 6d 10 5b be e5 60 da 3d
       -0.0408744 -0.08811678 -0.21392985 0.106630124
000090 51 b7 e4 be fc ee d3 be bf e4 a0 be 24 33 8c 3e
       -0.4467111 -0.41393268 -0.3142452 0.27382767
0000a0 b6 c8 81 be e1 9c 3e bd 54 4a ec 3d c9 67 ea bd
       -0.25348443 -0.04653633 0.115376145 -0.11445577
0000b0 6f 93 63 3e 77 1d 6b 3e 49 87 d5 bd 99 ad 0a be
       0.2222421 0.22960459 -0.10426194 -0.13542785
0000c0 9f 8e 15 3e b3 25 b4 ba d1 42 c0 3c 55 dc 13 3f
       0.14605187 -0.0013744145 0.02346936 0.57758075
0000d0 70 cc 6f bb 12 af a0 be ad 6f a1 3e 88 5b 08 3e
       -0.003659036 -0.31383568 0.31530514 0.13316166
0000e0 79 e0 3b be 01 ee 04 3f 5d 15 0b 3f 46 5c 05 3f
       -0.18347348 0.51925665 0.5432947 0.52093923
0000f0 2f d2 83 3e 64 7f f8 3e 5e ec 2c 3d fe 64 13 bd
       0.25746295 0.4853469 0.042217605 -0.035984986
000100 9d 36 47 be a2 c8 60 bf d5 a9 39 bc d9 26 47 be
       -0.19454427 -0.8780614 -0.011331995 -0.19448413
000110 6a f3 0d be 19 fa a7 3d 70 65 c8 3e c3 a4 36 bd
       -0.13862386 0.08201999 0.3913989 -0.044590723
000120 0a 50 b9 be 1e 46 e4 3e 99 49 29 be 99 2f f6 3e
       -0.36193877 0.44584745 -0.16531982 0.4808319
000130 74 f9 a9 3e 42 c5 f9 bd 2b 77 f4 3e 31 b0 3b 3d
       0.3319813 -0.12195827 0.47747168 0.045822326
000140 36 95 e0 3a b1 95 1a be 9c ea 9d 3e f9 32 d9 bd
       0.0017134312 -0.15096165 0.30843055 -0.106054254
000150 f7 d3 bd bd e5 a1 a2 3e 1c 21 3f be 60 46 02 3f
       -0.09268945 0.3176414 -0.18664974 0.50888634
000160 7e e0 10 3f 4a 57 38 3e 1c 27 5f bd 7c 5b 6f 3e
       0.5659255 0.18002048 -0.054480657 0.23374742
000170 bb f8 df bd 2b d1 ec bd b8 21 8e be d5 39 b4 bc
       -0.109361134 -0.11563333 -0.277601 -0.022000233
000180 d8 8c 49 3e 72 48 9f be ad 2f 0a be d0 a5 0b be
       0.19682634 -0.3110996 -0.1349475 -0.13637471
000190 15 eb 11 be 1f ac f8 3e 27 04 f6 bd 5c 82 f6 3e
       -0.14249833 0.48568818 -0.12012511 0.4814633
0001a0 9d 44 08 bf f8 94 92 3e 6f 32 41 be d4 69 ad 3e
       -0.53229696 0.2862928 -0.18866895 0.33869803
0001b0 33 38 4b 3f 5d 09 c7 3e 52 b0 b8 bd 3a 98 13 bd
       0.7938263 0.3887433 -0.090180054 -0.036033846
0001c0 35 10 18 3b 04 2e b6 be 33 41 1b be fd fc 05 3f
       0.002320302 -0.35581982 -0.1516159 0.52339154
0001d0 38 58 03 3f 9d 39 f2 3e a2 8c 21 bd 9f cd 14 bc
       0.51306486 0.4730958 -0.03944076 -0.009082227
0001e0 81 8e a3 3e a2 7c 83 be 45 ad 41 3e 6b 1d ae 3e
       0.3194466 -0.25681025 0.18913753 0.3400682
0001f0 16 39 f6 bd 71 d6 ae 3e ea 34 6d 3d 6a 14 44 3f
       -0.12022607 0.3414798 0.05791179 0.7659365
000200 cc 4d 0d 3f c1 d4 80 3d 28 dc 1f bf aa 11 77 be
       0.55196834 0.062905796 -0.62445307 -0.24127832
000210 cf 93 6f 3e 9e bf 9d 3b 5f a4 25 3e 80 68 f5 bc
       0.23396228 0.0048141023 0.16175984 -0.029957056
000220 14 11 0d 3f 10 9a bb 3e 68 8c 9d 3e df 7c 21 3f
       0.55104184 0.36640978 0.30771184 0.63081163
000230 9e 84 52 3d ac cf 4b 3e 68 d8 a7 3c fe e8 07 bf
       0.051396005 0.1990344 0.020488933 -0.5308989
000240 5f 33 65 3e 58 a8 b8 be bd a5 6c 3e c2 e7 0c bf
       0.22382878 -0.36065936 0.23110099 -0.55041134
000250 19 7b a4 3e b2 8b a6 3e 7a 55 8b bd 40 d5 35 be
       0.32125166 0.32528454 -0.06803413 -0.1775713
000260 6a 99 b5 3d eb c0 a5 be 9d d3 0a bc 10 a7 a1 3d
       0.08867152 -0.32373747 -0.008473304 0.07893193
000270 83 e3 09 bf b3 b4 20 be 30 2b ef 3b 41 11 bb 3e
       -0.5386278 -0.15693931 0.0072988495 0.365366
000280 34 1a 92 be 8d dd 83 be 8b 6a 91 be fb 7e 96 3e
       -0.28535616 -0.25754967 -0.28401598 0.29393753
000290 59 59 50 3e 4a 51 f6 3e de f7 26 3f 73 65 86 3c
       0.20346583 0.48108894 0.65221965 0.016405797
0002a0 80 41 73 3e 8f 14 cc 3e 06 68 4a 3e ff 9b a3 3d
       0.23755455 0.39859435 0.19766244 0.07988738
0002b0 00 82 14 bb 5f 98 93 3e 3f 1d a2 3c 47 dd 8f be
       -0.0022660494 0.28827187 0.019789336 -0.2809851
0002c0 11 39 1c be b7 4f 4d 3e 28 ab 97 3e eb 3d ac be
       -0.15256144 0.2004994 0.2962277 -0.3364099
0002d0 4f 90 15 3f bd 06 a1 bd 0c 33 85 3e 95 5e 00 3e
       0.5842332 -0.07862613 0.26015508 0.1253608
0002e0 40 eb 64 3d 93 34 21 be bb b0 25 3f 89 ae 24 be
       0.055888414 -0.15742712 0.64722794 -0.16082205
0002f0 a8 d4 2b 3f d5 34 5b 3f da b4 a6 3d 99 81 2d bc
       0.6712136 0.8562749 0.081399634 -0.0105899805
000300 7f 23 81 3e 27 74 b4 be 2e a2 39 3f 0b 3e 47 be
       0.25222394 -0.35244867 0.7251309 -0.19457261
000310 62 6a 0d be e5 97 8c be f1 e7 97 3e a0 7d f6 3d
       -0.13810113 -0.27459636 0.29669145 0.1203568
000320 16 a1 67 be 66 cc 25 3f 62 84 57 be 16 47 e3 3d
       -0.22620043 0.6476501 -0.21046594 0.11097543
000330 33 02 ea 3d 17 22 25 3f 89 c8 66 be a9 17 53 3f
       0.11426201 0.6450514 -0.22537436 0.8245798
000340 f9 6d bb bd a5 90 cc bd 4e 85 45 be c0 25 05 be
       -0.09151835 -0.09988526 -0.19289133 -0.13002682
000350 3a 08 e8 bd 84 40 01 3d 17 7b 3e be 1b a8 e4 3d
       -0.11329694 0.031555668 -0.18601643 0.11164876
000360 f0 49 1a 3e 8a 9d 75 3d 41 c9 4e 3c a0 e9 fd be
       0.15067267 0.059964694 0.012621225 -0.49592304
000370 39 58 03 be 39 8e 3f be 1d 48 b9 be a5 65 cf bb
       -0.12826623 -0.18706597 -0.3618783 -0.0063292556
000380 d4 d0 68 be ef 66 b4 3e 1c e3 be 3e 9b d5 48 bd
       -0.22735912 0.35234782 0.37282646 -0.049031835
000390 bc c2 c0 3e 4b 3d 8d bd 1b 04 a5 3d 6b 36 4e be
       0.3764857 -0.06896456 0.08057424 -0.20137946
0003a0 59 cf 8f 3e 07 ad 27 3e 5c 7a 95 be 30 62 ac bc
       0.2808788 0.16374598 -0.29194915 -0.021042913
0003b0 a4 32 5d bd a8 7f d7 3d 50 da b5 3e 79 50 8c 3e
       -0.054003373 0.10522395 0.35518122 0.27405146
0003c0 99 cd 58 be 56 4e 49 be 03 eb 05 3d 4e da 64 be
       -0.2117218 -0.19658789 0.032694828 -0.22348902
0003d0 3f 9e ae 3d fe a4 1a 3d bc e4 39 3f d2 5a f0 bd
       0.08526277 0.037755005 0.72614646 -0.117360726
0003e0 fe 71 3d be 01 bd c0 be 43 7c 84 3d 5e 6a 26 3d
       -0.18500516 -0.376442 0.064690135 0.040628783
0003f0 34 53 e1 be 29 8b 5b be db 18 16 be 64 4a 96 3e
       -0.4400879 -0.21439804 -0.14657919 0.2935363

l1.bias f4 [8]
000000 5e 74 85 3f 16 50 9a 3f a8 46 a0 3e 28 fe cc 3e
       1.0426137 1.205569 0.31303906 0.40037656
000010 ec b9 ee 3e 26 5b 6b 3f 03 08 2f 3f e4 f5 11 3f
       0.46626222 0.91935956 0.683716 0.57015824

l2.weight f4 [8, 8]
000000 c3 0a ad 3f 5f 8a 76 bd b4 2f a3 be d1 21 51 bf
       1.3518909 -0.060190555 -0.31872332 -0.81692225
000010 49 b6 a9 3f 5d bb 52 bf 69 84 22 3f f8 e0 9a 3f
       1.3258754 -0.82317144 0.6348329 1.2099905
000020 be 30 ba 3e 7f 27 5d 3e db 7c 84 bb 73 d2 7f bf
       0.36365312 0.21597098 -0.0040432042 -0.99930495
000030 4e cc f5 be 09 77 a3 3f 2b 19 a2 3f 74 2b aa bf
       -0.48007435 1.2770702 1.2663931 -1.3294511
000040 e8 68 5d 3f 74 21 f4 3f 91 87 93 3e 7e 7e 83 3f
       0.864882 1.9072709 0.28814366 1.0272977
000050 76 d1 09 be c0 4e c8 bd 66 ad da be a7 47 3b be
       -0.1345881 -0.09780645 -0.42710418 -0.18289052
000060 c3 4a 26 3f 32 dc 86 bf 14 3f a6 3f c7 38 59 3e
       0.6495783 -1.0535948 1.2988 0.21213065
000070 82 e2 dd 3e ec 8f cc 3f da b2 e0 3f d7 69 a2 bd
       0.43336874 1.5981421 1.7554581 -0.079303436
000080 bb 68 78 3f 7e 0e ae 3f 18 20 2e 3d ce 39 55 bf
       0.97034806 1.3598173 0.042511076 -0.8329133
000090 b3 f0 84 bf 9f 48 a4 3f 44 64 02 bf 9d e4 43 3f
       -1.0385956 1.2834662 -0.50934243 0.7652071
0000a0 21 1c 91 3e 0d 15 69 be 74 c6 57 be 0f 9a b4 be
       0.28341773 -0.22761936 -0.21071798 -0.35273787
0000b0 63 12 28 be 00 a0 d2 bc a0 13 f0 bd 2a 76 72 be
       -0.16413264 -0.02571106 -0.11722493 -0.23677889
0000c0 dd 6c 34 bf 69 cb d4 3d e9 8f aa bf 0c 25 87 3f
       -0.7047861 0.1039036 -1.3325168 1.0558181
0000d0 a2 5c 0f 3f d9 5b 9f 3f 74 82 56 3f 14 d7 ce 3f
       0.5600072 1.2449905 0.83792806 1.6159387
0000e0 ad 37 c2 3f 05 76 17 3c 68 3f 87 bf 38 ef 8a 3d
       1.5173241 0.009244447 -1.0566225 0.067839086
0000f0 09 b2 9e 3f c8 33 da 3e 6c 4d dd 3e 65 ef 77 be
       1.2398082 0.4261763 0.4322313 -0.24212416

l2.bias f4 [8]
000000 67 07 3b 3f 66 df 31 3f 0f 1c 58 3f bb 39 25 bc
       0.7305817 0.69481504 0.84417814 -0.010084565
000010 0a 06 13 3f 37 16 07 be 52 03 97 3e 25 73 ac 3e
       0.5743109 -0.13192068 0.2949472 0.33681598

l3.weight f4 [16, 8]
000000 c1 04 c9 be b6 e6 78 3f 99 8c 1a be ac a8 93 be
       -0.3926144 0.97227037 -0.15092696 -0.28839624
000010 01 97 ae 3e 0e c6 17 3e f8 83 d1 be 96 10 53 3e
       0.34099582 0.14821646 -0.40920997 0.20611796
000020 d8 98 95 bf 18 8a c8 3e b8 f0 b7 bf fa 6a 09 3f
       -1.1687269 0.39167857 -1.4370337 0.5367886
000030 2a 66 0a 3e 50 20 5c 3d 61 f8 94 bf 40 bd d1 be
       0.13515535 0.053741753 -1.1638299 -0.409647
000040 a1 cc 7b bf 1d ac ed 3e 61 b8 ef bf 18 24 9e 3e
       -0.98359114 0.46420375 -1.8728143 0.30886912
000050 db df bf be d3 34 69 be 36 e8 78 3d 1d 32 3c be
       -0.37475476 -0.22774057 0.06076833 -0.18378492
000060 b7 00 5a 3f 03 2a af bf 41 d6 ef bd f7 22 82 bf
       0.8515734 -1.3684696 -0.117107876 -1.016692
000070 5e 8e 3f 3e 3e 14 42 3e 4b ee c3 be cc c6 50 3f
       0.18706653 0.18953034 -0.3826774 0.8155334
000080 b7 2c 91 bf 5b d7 6d bf 2a 9e ca 3e 6e d7 a7 bf
       -1.1341771 -0.9290673 0.39573795 -1.3112619
000090 17 3a 0b 3f 90 70 c1 3c 81 91 47 3f d0 97 cd be
       0.54385513 0.023613244 0.77956396 -0.40154886
0000a0 4e a8 c0 3d 88 96 d2 bf 10 84 22 bf cc 31 d1 3e
       0.094071016 -1.6452188 -0.6348276 0.40858305
0000b0 a6 53 c3 bf f2 bd 18 3e 18 52 c4 3e 8a 18 9b be
       -1.5259902 0.14916208 0.38343883 -0.3029216
0000c0 fc a8 0b bf a6 a2 7c bf 6f e7 22 3f bb 48 42 be
       -0.54554725 -0.9868568 0.6363439 -0.18973057
0000d0 96 aa 9f bf 9a 5f 58 3e d6 72 43 bf cc d3 35 3f
       -1.2473934 0.21130219 -0.763471 0.710263
0000e0 54 65 8b bf 8f 96 71 bf b0 b0 2f 3e e1 ca 74 be
       -1.0890298 -0.9437036 0.17157245 -0.23905517
0000f0 0d 8e 35 3f 69 49 8d 3e 1a b4 31 bf 4c 50 89 bf
       0.7091988 0.2759507 -0.6941544 -1.072763
000100 3d c3 c7 bd 4c b8 0c 3f 77 f9 60 3f 7f db 17 c0
       -0.097540356 0.54968715 0.87880653 -2.372772
000110 07 88 43 3f 40 81 b7 3d 15 88 d3 bf 73 95 08 3e
       0.76379436 0.08960199 -1.6525904 0.1333826
000120 f5 17 99 3e 9b e4 0e bf e4 56 cc 3e ab 17 9d bf
       0.2990109 -0.55817574 0.39910042 -1.2272848
000130 ec b3 c3 bf b1 da 68 be bf 0f 3e 3f 50 4f e3 3c
       -1.5289283 -0.22739674 0.74242777 0.02774778
000140 60 ed a3 bf 55 4a 99 3e 21 b0 c5 3d 2e bb 02 3f
       -1.2806816 0.29939523 0.096527345 0.51066864
000150 9c 45 a3 bf 70 7a 2f 3d 1d 28 41 bf 57 7d fd be
       -1.2755618 0.042841375 -0.75451833 -0.4950969
000160 dc 4d d1 bf f9 1f 86 bc bf c2 62 bf 82 fb 54 bd
       -1.6351886 -0.016372668 -0.8857841 -0.05199767
000170 f5 f4 a1 3e dc f7 82 be 5b 21 c2 3e c7 c0 ac be
       0.316322 -0.25579727 0.37916073 -0.33740827
000180 f1 31 82 be 26 18 8e bf 35 d9 40 bf ca de ed 3e
       -0.25428727 -1.110112 -0.7533143 0.46459037
000190 1c 53 c5 3e 90 56 b8 bd ad 76 84 bf f2 8c 53 bf
       0.3853997 -0.090008855 -1.0348717 -0.8263694
0001a0 2e 34 13 3f 16 ab c4 be 3f b5 b5 bf e6 3a 03 bf
       0.57501495 -0.38411778 -1.4195937 -0.51261747
0001b0 55 c7 a9 3e a2 a1 2a 3e 1f 22 cd 3e a3 77 58 bf
       0.3315989 0.1666322 0.40065095 -0.8455755
0001c0 fe e2 14 3f 8a 75 05 3f d4 eb d9 bf 4f 5c 64 3e
       0.5815886 0.52132475 -1.7025094 0.22300838
0001d0 0f 64 a9 bf ba 90 7b 3e ce 78 e0 be e9 fc 2f 3f
       -1.323366 0.24566928 -0.43842167 0.68745285
0001e0 de 7b cd be f9 09 1e bf 88 c9 eb bf a4 28 63 3e
       -0.40133566 -0.6173397 -1.8420877 0.22183472
0001f0 fd 34 aa bf b5 8b 57 be 6f 8a 45 3f ab c4 3c 3f
       -1.3297421 -0.21049388 0.7716436 0.7373759

l3.bias f4 [16]
000000 eb 59 8f 3d ee f0 e8 bd 9f c4 19 bc e4 d7 b7 bd
       0.06999572 -0.11374079 -0.009385257 -0.08976725
000010 c1 65 9a 3e 6a ab 8c 3d 37 a2 90 bd cb 37 a2 bc
       0.30155757 0.06868632 -0.0706219 -0.019801995
000020 49 c9 da 3e 49 94 4c be 86 63 a5 3e 71 29 a9 be
       0.42731693 -0.19978441 0.32302493 -0.3303943
000030 a8 53 60 3d 4f 50 03 3e 26 38 8a be 78 a8 1f bf
       0.05476728 0.12823604 -0.26995963 -0.6236644
