data.pth (torch, 9258 bytes, 6 tensors)

l1.weight f4 [8, 128]
0	0x3e862af7	0.26204655
1	0x3f59d11f	0.8508472
2	0x3f0670b0	0.525157
3	0x3e61030b	0.21973817
4	0x3f1b4be0	0.6066265
5	0xbf09425d	-0.5361689
6	0x3ee3cf9e	0.44494337
7	0x3ead9847	0.3390524
8	0xbe861f49	-0.26195744
9	0x3e3b8308	0.18311703
10	0x3ee18fe8	0.44055104
11	0xbf0945fd	-0.5362242
12	0x3ec4fea6	0.3847553
13	0x3ed8df43	0.42357835
14	0x3ef21b66	0.47286528
15	0xbe166462	-0.1468673
16	0x3eeb34cc	0.45938718
17	0x3c4af337	0.0123870885
18	0x3f0e868e	0.55674064
19	0x3e7bd44c	0.24592704
20	0x3e5bb521	0.21455814
21	0x3efe818a	0.49708205
22	0xbdbe5596	-0.09293668
23	0x3ee1e0d5	0.44116846
24	0x3f4f614b	0.8100783
25	0x3f10b2ec	0.56523013
26	0x3ef76577	0.483196
27	0x3f19356a	0.5984713
28	0x3e8fc0e8	0.28076863
29	0x3ebc609b	0.36792454
30	0x3e25c0ac	0.1618678
31	0x3ed9c41e	0.42532438
32	0x3ed1564b	0.4088615
33	0x3f02a3fe	0.5103148
34	0xbe3e88d6	-0.18606886
35	0x3e3696f5	0.17831023
36	0xbcfb43e3	-0.03067202
37	0xbed617fb	-0.4181517
38	0x3f0a3836	0.5399202
39	0x3d925b09	0.0714627
40	0x3e5bc98d	0.21463604
41	0x3d9eb70e	0.07749759
42	0x3e960fce	0.29308933
43	0x3eaa9e03	0.33323678
44	0x3e338f38	0.17535102
45	0x3f00e35e	0.50346935
46	0x3f01755b	0.50569695
47	0x3d463bca	0.048396863
48	0x3e3d10a8	0.18463385
49	0xbda7f39a	-0.0820076
50	0x3ed5f486	0.4178812
51	0x3e8e2486	0.2776224
52	0x3ecf1097	0.40442345
53	0xbba9528f	-0.0051673125
54	0x3f0a9587	0.5413441
55	0x3f16a4de	0.5884532
56	0x3ea0062e	0.31254715
57	0x3f2fd619	0.6868606
58	0x3f00e89d	0.5035494
59	0x3f176b16	0.59147775
60	0x3f3a70b4	0.7282822
61	0xbf094570	-0.5362158
62	0x3e71cdd2	0.2361367
63	0xbd91fd4b	-0.0712839
64	0x3f1b9cde	0.60786235
65	0x3f3d2d64	0.73897386
66	0x3db920f6	0.0903949
67	0x3f0f5d83	0.5600206
68	0x3e2dc6cd	0.16970368
69	0x3e31ca9c	0.17362446
70	0xbe9e40fe	-0.3090896
71	0xbf23f40c	-0.6404426
72	0x3f0d09f4	0.5509331
73	0x3da7ad4f	0.08187353
74	0xbf09435f	-0.53618425
75	0x3f22f092	0.6364833
76	0x3dd396fe	0.10331534
77	0x3f373a70	0.71573544
78	0x3edafeb7	0.42772457
79	0x3ea90a63	0.33015737
80	0x3ef1314e	0.4710793
81	0x3f179aac	0.59220386
82	0x3eb7887d	0.3584632
83	0x3e85838d	0.26076928
84	0x3ebef40d	0.3729557
85	0x3eb482e8	0.35256124
86	0xbf0940b6	-0.53614366
87	0xbf094504	-0.53620934
88	0x3ef43783	0.47698602
89	0x3f021546	0.5081371
90	0x3ef4f174	0.47840464
91	0x3edcd4fb	0.4313124
92	0x3f0707f7	0.5274653
93	0x3eaf7b12	0.34273583
94	0x3e99a561	0.30008987
95	0x3e0da168	0.13831103
96	0xbed290b8	-0.41126037
97	0xbdcde8a8	-0.10054141
98	0xbebdfed8	-0.37108493
99	0x3ed8ef83	0.42370233
100	0xbf0930f7	-0.5359034
101	0x3eaf35a7	0.3422062
102	0xbeee0029	-0.46484497
103	0xbf038330	-0.5137205
104	0x3ed8d775	0.4235188
105	0x3e85b725	0.2611629
106	0x3f0afd2c	0.5429256
107	0xbd942187	-0.07232957
108	0xbec86a92	-0.39143807
109	0x3ed871a9	0.42274216
110	0x3e9830f8	0.2972486
111	0xbd60e642	-0.05490709
112	0x3f6f97b5	0.9359086
113	0xbf1e0757	-0.6172995
114	0xbf094474	-0.53620076
115	0xbf0942da	-0.5361763
116	0x3eb47434	0.35244906
117	0x3eb4f148	0.35340333
118	0x3e9dcabe	0.30818743
119	0x3f2a047f	0.6641311
120	0x3c7cad34	0.015422154
121	0x3f0c2299	0.5474029
122	0x3f4be53b	0.7964665
123	0x3ee13eca	0.43993217
124	0x3f0612b2	0.52372277
125	0x3e6d1523	0.23152594
126	0x3f34813b	0.7050969
127	0x3f01bf49	0.50682503
128	0xbe50d6b6	-0.20394406
129	0xbe261085	-0.16217239
130	0x3ee1ea2d	0.44123974
131	0xbe133f36	-0.14379582
132	0x3f8cfc56	1.1014507
133	0x3ef1fe7c	0.4726447
134	0x3d8ddf65	0.06927375
135	0xbf0ea477	-0.55719703
136	0xbeb17963	-0.34662923
137	0xbe8430e5	-0.25818554
138	0x3f2f5f9f	0.6850528
139	0x3eec55a1	0.4615908
140	0x3dd7f27f	0.10544299
141	0x3e3194a9	0.17341866
142	0x3ebc4cf4	0.3677746
143	0xbee19249	-0.4405692
144	0xbe163816	-0.14669833
145	0xbea33ce2	-0.31882387
146	0x3e047446	0.1293498
147	0x3ed20a6d	0.4102358
148	0xbe88b094	-0.26697218
149	0x3d98ece8	0.07467061
150	0xbf737710	-0.9510355
151	0x3e7f4e8d	0.24932308
152	0x3e871d6e	0.2638964
153	0x3d83633b	0.06415411
154	0x3e52275c	0.20522827
155	0x3eb2e3c0	0.34939384
156	0x3e5180d7	0.20459305
157	0x3d72bd57	0.0592626
158	0xbe70b2cc	-0.23505706
159	0x3e393dbb	0.18089955
160	0xbe68357e	-0.22676656
161	0x3e17e298	0.14832532
162	0xbe26cbcf	-0.16288684
163	0xbe1794b4	-0.1480282
164	0xbe24eb02	-0.16105273
165	0xbf2cc529	-0.6748834
166	0x3f825652	1.0182593
167	0xbeb6c905	-0.3570024
168	0xbde9f5c4	-0.11423829
169	0xbecb0498	-0.39651942
170	0x3e87a182	0.26490408
171	0x3c7ed9b5	0.015554835
172	0xbe89be80	-0.26903152
173	0x3dae761b	0.085186206
174	0x3e19aeda	0.15008107
175	0xbe090293	-0.13379888
176	0xbe217798	-0.15768278
177	0xbe8f03d7	-0.27932617
178	0xbe0cd9b8	-0.13754928
179	0x3e18ca1a	0.14920846
180	0xbeccec36	-0.40023965
181	0x3f0717b4	0.52770543
182	0x3e2540bf	0.1613798
183	0xbe8feca6	-0.28110236
184	0x3df90358	0.12158841
185	0x3f3e5e90	0.7436304
186	0xbed2bb71	-0.4115863
187	0x3f4492d3	0.76786536
188	0x3f687838	0.9080844
189	0x3ebabf61	0.36474136
190	0x3e9400db	0.28906903
191	0x3ed89b34	0.4230591
192	0xbdc12164	-0.09430197
193	0x3ed7ca94	0.42146742
194	0xbe07be15	-0.13256104
195	0xbd67fd63	-0.056638133
196	0xbe53de05	-0.20690162
197	0xbf1f7f8e	-0.6230401
198	0x3e2878d9	0.1645235
199	0x3f0c63eb	0.5483996
200	0xbcfcb1df	-0.030846534
201	0x3e96aa23	0.2942668
202	0x3eb2f274	0.34950602
203	0x3f30e014	0.69091916
204	0xbed99723	-0.4249812
205	0x3f2d44d2	0.67683136
206	0xbe8617e4	-0.26190102
207	0xbe0cf18e	-0.13764021
208	0x3f092c87	0.5358357
209	0x3cbd4858	0.023105785
210	0x3e3418d3	0.17587595
211	0xbd8baed6	-0.06820457
212	0x3dc1a4a8	0.09455234
213	0x3e967e1a	0.29393083
214	0x3ef6f305	0.48232284
215	0x3f03ce53	0.514867
216	0x3db1e6d6	0.086866066
217	0x3ef90cb8	0.48642516
218	0x3d3629a0	0.04447329
219	0xbedda807	-0.43292257
220	0x3dc6edf2	0.09713353
221	0xbd80becf	-0.06286394
222	0xbed9381e	-0.42425627
223	0xbe9f85d3	-0.31156787
224	0xbf19d024	-0.6008322
225	0x3d966f3f	0.07345437
226	0xbed85229	-0.42250183
227	0xbef9fabb	-0.48824105
228	0x3ef8df1f	0.48607728
229	0x3df95ab6	0.12175505
230	0x3eb4adfc	0.3528899
231	0x3efff10b	0.4998859
232	0x3dfc1120	0.12307954
233	0xbc496751	-0.012292699
234	0xbd65edfe	-0.05613517
235	0xbf737747	-0.9510388
236	0xbeabd175	-0.3355824
237	0x3ef5b74a	0.479914
238	0x3e2e5b1f	0.17026947
239	0x3e3ff860	0.18747091
240	0x3f072027	0.52783436
241	0xbf0f5577	-0.55989784
242	0x3f04a4d5	0.51814014
243	0x3ec91ba3	0.39278898
244	0x3f4d0d77	0.8009867
245	0xbcf98a6f	-0.030461518
246	0x3d76d4c0	0.060261488
247	0xbe87593b	-0.26435265
248	0x3e905b11	0.28194478
249	0x3dc0e2b2	0.09418239
250	0x3f0b3593	0.5437862
251	0xbdd59cac	-0.104302734
252	0xbd8229cf	-0.063556306
253	0xbe3899ed	-0.18027468
254	0xbf1ef8a6	-0.6209816
255	0xbda5dba9	-0.080985375

l1.bias f4 [8]
0	0x3f0944f7	0.53620857
1	0x3f73752c	0.95100665
2	0x3f8910df	1.0708274
3	0x3f319872	0.6937324
4	0x3ec1bc3b	0.3783892
5	0x3f1ea0a8	0.6196389
6	0x3f999e0f	1.2001361
7	0x3f842e2b	1.0326589

l2.weight f4 [8, 8]
0	0x3d33f602	0.043935783
1	0xbf3b8ac2	-0.732586
2	0x3f927392	1.1441519
3	0xbf5abfd2	-0.85448945
4	0x3f9d7568	1.2301455
5	0x3f97fcc8	1.1874018
6	0x3f9c6d93	1.2220939
7	0x3fbc359a	1.4703858
8	0x3fa0e55c	1.2569995
9	0x3f66b71a	0.9012314
10	0x3f4bf4dd	0.79670507
11	0xbf936ac0	-1.1516953
12	0xbeafb067	-0.34314272
13	0xbc31a5c6	-0.010842746
14	0xbf1279d2	-0.57217133
15	0x3f266e8c	0.6501243
16	0x3ea7f0fc	0.32801044
17	0x3f9fa4fb	1.2472223
18	0x3f2f4656	0.684667
19	0x3fa03bbc	1.251823
20	0xbea897bd	-0.32928267
21	0xbf56a8ab	-0.83851117
22	0x3f8d339d	1.1031376
23	0xbed23e74	-0.41063273
24	0x3fb39cf0	1.4032269
25	0xbf5edeae	-0.8705853
26	0x3e33ad27	0.17546521
27	0xbe9ab05d	-0.3021268
28	0x3fb77015	1.433108
29	0x3fb8678a	1.4406598
30	0x3f490338	0.78520536
31	0xbeb5fb74	-0.35543406
32	0xbe4892ed	-0.19587298
33	0xbeb45ce9	-0.35227135
34	0x3e9b55e1	0.30338958
35	0x3d31d2f1	0.04341406
36	0x39aa751b	0.00032512177
37	0xbdb68189	-0.089114256
38	0xbe7a435d	-0.2443976
39	0x3ca34088	0.019928232
40	0xbf0428d3	-0.5162479
41	0x3fbcd2eb	1.4751867
42	0x3fadcffa	1.3579094
43	0x3f97189c	1.1804385
44	0xbf882f54	-1.0639443
45	0xbf0a663c	-0.5406225
46	0x3fb32a13	1.3997215
47	0x3f18c7d2	0.596799
48	0x3f7d6d59	0.98994976
49	0x3f58840b	0.8457648
50	0xbf17bd2d	-0.59273034
51	0x3fac7495	1.3473078
52	0x3eac15ea	0.3361047
53	0x3de41d78	0.11138433
54	0xbfd2a3b6	-1.6456211
55	0x3eea2c51	0.45736936
56	0x3e91262f	0.28349444
57	0x3f54e396	0.8315977
58	0xbf841c66	-1.0321167
59	0xbd5792a2	-0.052630074
60	0xbf24d7dd	-0.6439188
61	0x3fd110d0	1.6333256
62	0xbe4565ed	-0.19277163
63	0x3f4ad1f2	0.792266

l2.bias f4 [8]
0	0x3f379fd1	0.71728235
1	0xbe9f8520	-0.31156254
2	0xbb94c74f	-0.004540361
3	0x3e90fe8e	0.2831921
4	0xbe398a9a	-0.18119279
5	0x3f539a3c	0.8265722
6	0x3ec6b095	0.38806596
7	0xbddb897c	-0.107195824

l3.weight f4 [16, 8]
0	0xbdcea4ae	-0.10090004
1	0xbfd7f6ef	-1.6872233
2	0x3f3387a5	0.7012885
3	0xbfb923ca	-1.4464047
4	0x3e5a4be8	0.21318018
5	0x3f75ca0c	0.96011424
6	0xbfac9b9e	-1.3484991
7	0xbfc0c497	-1.5059994
8	0xbf50ebdc	-0.8160989
9	0x3d24ff00	0.04028225
10	0xbd8e128a	-0.0693713
11	0xbe9422fa	-0.28932935
12	0xbeb9d134	-0.36292422
13	0xbefc1bcf	-0.49239966
14	0x3dcb51a3	0.0992768
15	0xbcabe026	-0.020980906
16	0x3c21ada9	0.009868064
17	0xbee6c2a0	-0.45070362
18	0x3d0716a5	0.03298058
19	0x3e811d51	0.2521768
20	0x3ce222ec	0.027604543
21	0xbee10a8e	-0.43953365
22	0xbebfbc62	-0.37448412
23	0xbfc3e4a0	-1.5304146
24	0x3f25dc56	0.6478933
25	0xbfbfba9f	-1.4978827
26	0xbee616b2	-0.4493919
27	0x3e8ad961	0.27118972
28	0xbe8c523c	-0.2740649
29	0x3e971baa	0.29513294
30	0xbfb9f74f	-1.4528598
31	0xc0083652	-2.1283154
32	0x3f3c06cc	0.7344787
33	0xbf9c8b24	-1.2229962
34	0xbff2a6b3	-1.8957123
35	0x3ed356f3	0.41277274
36	0xbe1b587e	-0.15170476
37	0xbf8302c0	-1.0235214
38	0xbff857e8	-1.9401827
39	0x3eb76e82	0.35826498
40	0xbfa99d49	-1.3251125
41	0x3eb1266c	0.34599626
42	0x3d665abc	0.056238875
43	0xbfb7ceac	-1.4359946
44	0xbd857f97	-0.065184765
45	0x3e378ea0	0.17925501
46	0x3e5bbe15	0.2145923
47	0xbe20e2ae	-0.15711471
48	0xbf3979de	-0.7245158
49	0xc00ffd4d	-2.2498353
50	0xbd62cca2	-0.055370934
51	0x3e4c94db	0.19978659
52	0x3e9b87d1	0.30377057
53	0xbe39c406	-0.18141183
54	0xbd336a30	-0.04380244
55	0xbdedbf37	-0.11608737
56	0x3ec289d2	0.37995774
57	0xbe07be55	-0.132562
58	0xbfda12a0	-1.7036934
59	0x3ef1ca28	0.47224545
60	0xbebb2b8e	-0.36556667
61	0xbf696ce6	-0.9118179
62	0x3d915bbe	0.070975766
63	0xc0535348	-3.301958
64	0x3d96b873	0.073594
65	0x3f6bbd09	0.9208532
66	0xbf056e6b	-0.5212161
67	0xbf187863	-0.59558696
68	0x3cb2f45c	0.021845035
69	0x3ed10385	0.40822998
70	0xbfdc5d1a	-1.7215912
71	0x3db8fdd8	0.09032792
72	0xbfb294f8	-1.3951712
73	0xbff4a446	-1.9112632
74	0x3edcfa94	0.43159926
75	0xbf9de154	-1.233439
76	0x3c93200b	0.017959615
77	0x3f0a188d	0.5394371
78	0x3e529dfc	0.20568079
79	0xbdc089c1	-0.094012745
80	0x3d6fc949	0.05854157
81	0xbfe3dae9	-1.7801181
82	0xbf2fbf15	-0.68650943
83	0xbf947b3e	-1.160011
84	0x3ca602d4	0.02026502
85	0xbe016692	-0.12636784
86	0x3f04b492	0.5183803
87	0x3edd610b	0.432381
88	0xbf5a4884	-0.852669
89	0xc008f65f	-2.1400373
90	0x3f04cc70	0.51874447
91	0xbdf7572e	-0.12077175
92	0x3ea3b592	0.31974465
93	0xbdb2dbfc	-0.08733365
94	0x3ee346a5	0.44389835
95	0xbfddfaef	-1.7342204
96	0xbf4b39ef	-0.79385275
97	0xbdadb38c	-0.084815115
98	0x3eae7c4a	0.340792
99	0x3d72dd04	0.05929281
100	0xbe272be8	-0.16325343
101	0xbfa5bcfe	-1.2948301
102	0x3e5a5f68	0.21325457
103	0xbfc38fa4	-1.5278211
104	0xbcc97f84	-0.024596937
105	0xbf503657	-0.81332916
106	0xbe84e8ea	-0.2595895
107	0xbf5b2126	-0.85597456
108	0x3e74ad93	0.23894338
109	0x3eab25cd	0.33427277
110	0x3f0bf186	0.5466541
111	0xbff5346c	-1.9156623
112	0xbe3ce46b	-0.1844651
113	0xbf89328a	-1.0718548
114	0xbfab1c8b	-1.3368086
115	0x3efe178d	0.49627343
116	0x3e6f7c78	0.23387325
117	0xbfa22595	-1.2667719
118	0x3e1dcf3c	0.15411085
119	0x3e8083f7	0.2510068
120	0x3ec615a0	0.38688374
121	0x3f6f8b90	0.9357233
122	0xbfab15aa	-1.3365986
123	0x3d0e35cc	0.034719273
124	0xbe05c516	-0.13063464
125	0xbf587e1b	-0.8456742
126	0xbf3be43d	-0.7339514
127	0xbf549584	-0.8304064

l3.bias f4 [16]
0	0x3eb30d0b	0.34970888
1	0xbf414f42	-0.7551156
2	0xbf37d962	-0.71816075
3	0x3e9b3fd9	0.3032215
4	0x3e20b151	0.15692641
5	0xbe15d7a7	-0.14633046
6	0xbe590b2a	-0.21195665
7	0xbe284e93	-0.16436224
8	0x3e973135	0.2952973
9	0x3e109edd	0.14123102
10	0xbcdbcdca	-0.026831526
11	0xbeb3390f	-0.3500447
12	0xbdd79e29	-0.105282135
13	0x3ea2cf32	0.31798702
14	0x3dcdf5b8	0.10056633
15	0xbedd2a20	-0.431962
