data.pth (torch, 6634 bytes, 6 tensors)

l1.weight f4 [8, 73]
00000000: 1b47 c73e 24be a03e 3b84 1bbe ed69 153e
00000010: b596 093f 2a5b 913e 6958 0b3f 61b6 093e
00000020: 28d5 82bc 92fd d53e f827 633d 27df 4dbe
00000030: 4d44 7d3e 9952 ab3e 72aa 253e b303 dcbc
00000040: abff 723e 0878 5b3e a28e debc 9b21 c83e
00000050: 8c74 ad3e 8fef fd3e 2897 be3e 30f3 e6bc
00000060: 80db 06be 28d3 253f 7484 063f a6b2 7b3d
00000070: 6e70 cb3e dabd 843e cfda a53e 6c3c bc3e
00000080: 7e79 b73e b431 1a3e 8a95 e13e 8843 773e
00000090: bf76 a63e f0ac 9bbe f9ca 9cbe 09ce a63e
000000a0: 0888 51be 3248 753e 62ad c03e cb14 2f3e
000000b0: 3d16 eebe bbe0 5c3e 252b 8ebe f29d cf3e
000000c0: 2c60 85be 4d44 1b3e 700d e33e c61b dc3e
000000d0: 48f0 acbe 9421 373e 1487 4e3d 3306 653e
000000e0: 6a9f bc3e 3c74 be3e 206b f53e 8173 003f
000000f0: 16b6 e13e b6c7 dabe d107 bc3e 430a 9a3e
00000100: 3bd8 cd3d f462 91bd 4d8a 853e 2854 1e3f
00000110: 0a88 b7be eafa 513e e433 993e 6659 9b3e
00000120: d213 c33e aa0f 89be 1add a2be 4c23 1e3e
00000130: 65e0 783d 5ce2 38be c229 98be 3e18 5fbe
00000140: cca3 ce3d 1b4f 91be a6e4 7abe 92a1 3ebe
00000150: 4f26 073f 7834 a3be eabd 0b3b 7b28 b43d
00000160: 7dd7 043f 8f18 04bc 21ff 5d3e ee8b 2bbe
00000170: 9452 30be 69e2 85be 8643 75be 4086 febd
00000180: 4388 133e bd0c 9a3e 21c7 16be 91d9 8fbe
00000190: 3395 213f 160b 2abe d107 943e 262e 5b3e
000001a0: 786f 84be 5d15 063f 85af 1a3e b628 9bbe
000001b0: 028b 54be 6189 39be cafa 013f a03b 1c3f
000001c0: 0a5c 93be 4d0f a3be 6e54 7dbd 5f64 afbe
000001d0: 03de 553e caec 353f 33b1 7a3c 2cf5 27bd
000001e0: 726c b23e ffc5 82be ad94 1e3d d2ec 8ebe
000001f0: b66b 0abe df0b a2be e992 893d a0b0 97be
00000200: 8c60 9b3d 6dc6 88be 58e7 94be 27b4 703d
00000210: f63a 32be 74e1 51be 971c 053f bc7f 3e3e
00000220: 12b3 233f 2b8a 963e d1db 933d c8c0 a63e
00000230: c457 323c ff6c 1a3f 717c 843e f4b3 8dbe
00000240: 37ea 1d3e fcc8 71be ea37 c33e 8b25 a63d
00000250: 2b7c 4d3f 9b04 43be 9bf8 453c 8e63 4e3d
00000260: 9902 69be d970 21be 9fd2 abbe d5e0 213f
00000270: 5edf f5be 9ec4 bfbd 45d7 fdbc 857c 36bd
00000280: e935 a9bd f18a b23c fcb4 3ebe 1807 03be
00000290: e44a b2be e2d0 f43e e471 173c 5b77 253f
000002a0: 1633 44bd 9dc0 163f 23c8 243f 5156 a33d
000002b0: 79b6 8d3e 3fd7 a23e d8d1 0fbe 1774 b3bd
000002c0: e33d bb3b 6d52 b6bc 62ba 1f3e 1678 26bd
000002d0: 0178 e8bd 2495 e73e 3ccb c93e f8f3 1b3d
000002e0: bb01 80be e155 af3e 9d52 513e 676d 7f3e
000002f0: 9a84 993d eb49 fbbd c8a4 2abf d929 7bbe
00000300: 81f9 4c3f b55f 933e 8cb1 e63e ddcd 0fbe
00000310: 200d c13e 2c38 e43e 3061 d63e 32af 99bc
00000320: f2b3 eabe 8a42 b0bd f5af 1c3f 6982 d7bd
00000330: 07ff b63e da2c 4c3e 2850 d43e 8674 66be
00000340: ed18 ecbd cbc1 f3bd 1b6f 55be b914 103f
00000350: c588 2f3f 21b9 123f 5810 87be e8ca e6bc
00000360: d6be d93e 07ab f4bd 2b08 a1bc af35 a73e
00000370: c1cc 84be e254 b2be 981e 51bd b362 98bd
00000380: 932c a0be 3d7e 083f 81ac 8dbd 4b22 053f
00000390: b5c3 ebbe f775 333f 21a5 0c3e 93f7 94be
000003a0: 0598 92bc 2518 2fbe b7ef 5c3e 303a f3bc
000003b0: e00d b5bd cbdc 153f 4944 8b3e 5651 94be
000003c0: 759d abbe 218a 44be a0dc 94be 17a5 f7be
000003d0: b842 87bd a373 a33d 3c04 353f a37a 94be
000003e0: a300 49be 1bc9 833e eae6 94be 2fc2 1b3f
000003f0: 1be5 7dbd 8ceb 8fbe b527 b33e 34ff 583e
0.38921437 0.31395066 -0.1518716 0.14591189 0.53745586 0.28389865 0.5443178 0.13448478
-0.015970781 0.4179502 0.05545804 -0.20104657 0.24733086 0.33461455 0.16178301 -0.026857233
0.23730342 0.21432507 -0.027167622 0.3908814 0.3387798 0.4959683 0.37224698 -0.028192133
-0.1316967 0.64775324 0.5254586 0.06144967 0.39734215 0.25926095 0.323935 0.36764848
0.3583488 0.15058023 0.44059402 0.24146855 0.3251247 -0.30405378 -0.30623606 0.32579067
-0.20462048 0.23953322 0.3763228 0.17097776 -0.4650134 0.21570103 -0.27767292 0.4055019
-0.26049936 0.15162773 0.4434619 0.4298994 -0.3377707 0.17883903 0.05042179 0.22365646
0.36840373 0.37198055 0.47933292 0.50176245 0.44084233 -0.42730492 0.36724713 0.30085954
0.10051008 -0.07098952 0.26082078 0.6184716 -0.35845977 0.20505872 0.29922402 0.30341643
0.3810106 -0.26769763 -0.31809312 0.15443152 0.060760874 -0.18055099 -0.2971936 -0.21786591
0.100898355 -0.28380665 -0.24501285 -0.18616322 0.5279283 -0.31875968 0.0021322914 0.087967835
0.5189131 -0.008062496 0.21679355 -0.16752598 -0.17219001 -0.261493 -0.2395154 -0.1242795
0.14407448 0.30087844 -0.14724399 -0.28095677 0.63118285 -0.16605791 0.28912213 0.21404323
-0.25866294 0.5237635 0.15106018 -0.30304497 -0.20756152 -0.18118812 0.507733 0.6102848
-0.28781158 -0.3184761 -0.061848097 -0.34256265 0.20885472 0.71064436 0.015301037 -0.0410053
0.34848362 -0.25541684 0.038716007 -0.27915055 -0.13517651 -0.31649682 0.06717474 -0.29626942
0.07586774 -0.26713887 -0.2908275 0.058765557 -0.17405304 -0.2049616 0.5199675 0.18603414
0.63945115 0.2940229 0.07219661 0.32568955 0.010885183 0.60322565 0.2587619 -0.27676356
0.15421377 -0.23611826 0.38128597 0.081126295 0.8026759 -0.19044726 0.012083198 0.05038791
-0.22754897 -0.15765704 -0.3355913 0.6323369 -0.48021978 -0.093636736 -0.030986438 -0.044552345
-0.08262236 0.021794768 -0.18623728 -0.12795675 -0.34822762 0.47815615 0.009243462 0.64635247
-0.04790028 0.58887655 0.64367884 0.07975448 0.27678278 0.31804845 -0.14044893 -0.08762377
0.0057141646 -0.0222561 0.15598443 -0.040641867 -0.11351014 0.45230973 0.39412868 0.038074464
-0.2500132 0.34245208 0.2044167 0.24944077 0.07495995 -0.12269958 -0.66657686 -0.24527682
0.8006821 0.28783956 0.45057333 -0.14043374 0.37705326 0.44574106 0.41871023 -0.018760297
-0.45840412 -0.08606441 0.6120599 -0.10522921 0.35741445 0.19938985 0.41467404 -0.22505388
-0.11528192 -0.119021975 -0.20843165 0.5628162 0.6856807 0.57313734 -0.26379657 -0.028172925
0.4252841 -0.119466834 -0.019657215 0.32658145 -0.25937465 -0.34830385 -0.051054567 -0.074407004
-0.31284007 0.53317624 -0.06917668 0.5200545 -0.4604775 0.70101875 0.13734867 -0.29095134
-0.017894754 -0.17099054 0.21575819 -0.029690832 -0.08840537 0.5854003 0.27200535 -0.28968304
-0.33518568 -0.19193317 -0.29074574 -0.4836814 -0.066045225 0.0798104 0.70709586 -0.28999814
-0.19629149 0.2573937 -0.29082423 0.60843176 -0.06198607 -0.28109396 0.34991232 0.21191102

l1.bias f4 [8]
00000000: 6381 b53e 5b1a 373f eb09 063f 485e fe3e
00000010: fada d7bd e1af c83e daa9 dc3e 6604 513f
0.35450277 0.7152459 0.52358884 0.49681306 -0.10539813 0.39196685 0.43098336 0.81647336

l2.weight f4 [8, 8]
00000000: 3956 2d3f 2448 4abf e9d2 713e c4d9 35be
00000010: 6076 a93e 3a7a 38bf 8aa3 173f a5c8 eb3e
00000020: c49c 1cbf 1110 463f 00eb 1f3f f1c9 89be
00000030: 3cce bc3b be25 01bf c9e9 b6be 4fab 653f
00000040: c6b3 dfbe 4906 753f 6afa 4ebf bde1 673f
00000050: a81a 5d3e d112 c83d 592c 5b3f bd32 623f
00000060: a3ae aebe e218 c03d cef3 d9bd 26ab d5bd
00000070: a311 04be 4d6f 243e 22ae 14be 0daa 5cbe
00000080: 6645 92bc 9811 1b3e 004b 0fbe f858 33be
00000090: 809f 7ebe 0a09 033e b441 79be deb5 273e
000000a0: b2a6 073f 14b7 b0be 829c 743f 7e31 663f
000000b0: 5c53 4c3e 4035 713f 47ce 4fbf 3603 e43e
000000c0: 1e52 833f 7033 c73e 0814 87be 916f 9b3d
000000d0: 1f69 1dbe e6ad 283e ab25 89be 215e 3abf
000000e0: bd77 293f cdce 92be 91a0 493f 6d94 20bf
000000f0: 5ec7 8cbe af62 163f 7266 d93d 7491 3d3f
0.6770969 -0.7901633 0.23615612 -0.17758852 0.33098125 -0.720615 0.59233916 0.46051517
-0.61176705 0.77368265 0.62467957 -0.26911882 0.0057618897 -0.50448215 -0.3572524 0.8971452
-0.43691844 0.95712715 -0.8085085 0.90578824 0.215922 0.09769214 0.85614544 0.8835867
-0.34117612 0.09379746 -0.10642205 -0.104330346 -0.12897353 0.16058083 -0.14519551 -0.21549244
-0.017855357 0.1514343 -0.13993454 -0.17514408 -0.24865532 0.12796417 -0.2434147 0.1637797
0.5298873 -0.34514678 0.9555131 0.8991927 0.19953674 0.9422188 -0.8117413 0.445337
1.0259435 0.3890643 -0.2638247 0.07589639 -0.15372132 0.16472587 -0.2678655 -0.7279988
0.6619833 -0.286734 0.7876063 -0.6272648 -0.27495855 0.5874433 0.10615243 0.7405007

l2.bias f4 [8]
00000000: 1793 4c3f 91d7 6a3f 974b 8d3e 1669 edbc
00000010: a16e d3be 69c8 c7bd 8551 633f fab7 16be
0.7991194 0.9173518 0.27596733 -0.028980773 -0.4129534 -0.09755022 0.88796264 -0.14718619

l3.weight f4 [11, 8]
00000000: e973 973e a4e7 89bf e3bf 803e 1a63 08bd
00000010: e9ab 94bd c2d4 2fbc c8be 3bbf 780a b2bf
00000020: 5838 7bbf 56fd 5bbf 0675 76bf 26a8 783e
00000030: 33df be3d 5314 183f 4472 ffbd 919b e9bd
00000040: 5366 cb3e e85c 9dbf 59a2 79bf 8f7d 183e
00000050: da01 2ebe b57e 1d3e 6564 dcbe cb93 bc3e
00000060: 74dc fe3d 7e60 6a3f f3dd 52bf 0867 84be
00000070: 1094 263e 3d2b 3cbe 2629 61bf 4a2c 193e
00000080: b41c f43e 9f1e c43e 145a 1abf 0a0e 12bd
00000090: 36fa 79be 489a 36bf c956 963f 80ed 70bf
000000a0: e62e 1f3f 0393 73bf d19d ffbe 8c95 5bbe
000000b0: fe82 863e e57a 89bf 964b 31bf aa1b 143f
000000c0: 6695 70bf 5fea eb3e 47d0 d03e e0ce ac3e
000000d0: bfe3 c23d 7158 a7bf 883c 33bf 631c 8dbf
000000e0: 52dc a2bf 58a4 c43e a32d 79bd 8a55 d13d
000000f0: 8c9a cdbc 3452 733e f32c 7fbf 4b93 21bf
00000100: 55e7 babe d2e6 fa3d 284e aabf e805 d73c
00000110: 4d4c ccbe f83c ae3e bb8f abbf a726 db3e
00000120: 0da7 b43d 99e7 e6be f4f1 323e f946 943c
00000130: c721 7b3e 684a 44bf 4824 53bf 434f fdbc
00000140: 9e56 91bf 1075 72bf fa20 463d c272 6cbe
00000150: ca10 a3bd 6aed 713e 91a5 2abf 0516 663e
0.2958062 -1.0773816 0.25146398 -0.033297636 -0.07259352 -0.010731878 -0.73337984 -1.3909445
-0.9813285 -0.85933435 -0.96272314 0.24282894 0.093199156 0.5940601 -0.12472966 -0.11406625
0.39726505 -1.2293978 -0.9751335 0.14891647 -0.16992894 0.15380366 -0.43045345 0.36831507
0.12444392 0.91553485 -0.8236992 -0.25859857 0.16267419 -0.18375869 -0.8795341 0.14958301
0.4767815 0.38304612 -0.602937 -0.03565792 -0.24411854 -0.71329165 1.1745235 -0.94112396
0.62180936 -0.951462 -0.49925092 -0.21443766 0.26271814 -1.074063 -0.6925596 0.5785471
-0.93977964 0.46077248 0.40783903 0.33751583 0.09516095 -1.3073865 -0.7001424 -1.1024288
-1.2723486 0.38406634 -0.06083454 0.102213934 -0.025098108 0.23761827 -0.9967796 -0.63115376
-0.36504617 0.12251057 -1.3305101 0.026247934 -0.39901963 0.3403089 -1.3403238 0.42802927
0.08820925 -0.4509857 0.1747511 0.018100249 0.24524604 -0.76676035 -0.82477236 -0.030921584
-1.1354558 -0.94709873 0.048371293 -0.23090652 -0.07962187 0.23625723 -0.66658884 0.22469337

l3.bias f4 [11]
00000000: 65af ef3d 1136 d63c c947 edbe 9563 c6bd
00000010: 7795 c43e fbaf abbd 2a50 853d 9d97 63bd
00000020: 04c4 e3be 9a82 c9be a5fb aebd
0.11703376 0.026148828 -0.4634383 -0.096869625 0.38395283 -0.08383175 0.06509431 -0.05556451
-0.44485486 -0.39357454 -0.08544091
