data.pth (torch, 8170 bytes, 6 tensors)

l1.weight f4 [8, 106]
00000000: d018 53be 92f7 fcbd ebf1 993e b647 1e3f
00000010: fdae 203f 1607 233e 97fa 11bf b94b 94be
00000020: 54ed b43e 3aa0 143f 2af0 1c3f eeef 32bd
00000030: ac40 143e a673 9f3b 9f9a 55be 016d 04be
00000040: 3d73 75be eed6 b1bd 74d6 e83e 2e21 843e
00000050: a826 343e 743c 2abf ba61 063e dca3 883e
00000060: 3a54 f93d 2e89 043e 0b57 c1bd cc9d bdbd
00000070: dc4d 683e 5631 86be 562e b13e 8ff1 83be
00000080: a2b9 93be 25c2 293f b51c 133d 1083 f4bd
00000090: b2e6 0cbe fb4f 3a3d 246e a53e 184b 313e
000000a0: 7211 f73d cf7e 893e 8e25 bcbb 0b6f 213f
000000b0: 4318 7e3d 3aaf 3d3e 9e25 8e3e 095c 2bbe
000000c0: 5d73 373f 0630 05be 12be 463f f3cc 3c3f
000000d0: e402 073f 48b6 3e3d 08b2 db3e 699d 46be
000000e0: 9981 35bf cea6 69bb f946 73bd 47d1 853e
000000f0: 5e07 bfbe 4b8b b2bb d5fd 343e 3aec b43d
00000100: 94d6 86be 6d13 ee3e 79f5 fa3e 4435 37be
00000110: ac16 283f e63a 19be 8e95 5c3d 539e 4ebe
00000120: 7fdf 3ebe 0aef bcbd 9fd2 183f b185 273f
00000130: 5231 003e 9598 b4bd 802d 013d e02e f4bd
00000140: 8508 b33e 8069 dfbe 4cdc ffbb 9d37 5abe
00000150: 66b8 143f 2884 1ebd 5f18 a53e eac7 cb3e
00000160: 1eeb 923d 19c2 0fbf 2926 06be 47d5 2c3e
00000170: 43ab b7bd 3a51 bb3e 95d5 04be 8da2 cc3e
00000180: d792 183f 4416 4e3f 65e7 1fbe dcda 7e3e
00000190: 7820 0f3e 5a9c 93bd 81f8 233e dacf be3e
000001a0: 96f3 96be cc49 2fbe 1423 e83e 27bc 60be
000001b0: 9028 36bd c2cd 3cbf 3b04 2f3f 5640 8bbd
000001c0: bff1 753e 8202 033f 9233 8cbd 0a42 bf3e
000001d0: 3810 1d3f 31cc d23e e7fa c73e cb07 543e
000001e0: 8345 f33e 9fb2 01bd 0e60 cf3e ec15 b93e
000001f0: 05f7 85be 7214 fe3c 7966 3fbd c5fc 4d3f
00000200: ea7e 973e cea1 bbbe 5916 47be ff0f c53e
00000210: f866 493e db27 33be 34da e13b bc66 63bd
00000220: 650f 4d3c 2e93 0fbd 7d4f ee3e fc3c 3bbf
00000230: 9c41 b93e 0ad1 3d3e 182a bf3e 24ab 48be
00000240: 4baa 673c c7eb 983e 4162 96bc 0a58 65ba
00000250: 22a9 553e 134a 283f 61bb 60be 1d90 843e
00000260: 38a2 c4bd ce0a 17be c057 f73e 6086 073f
00000270: 724b ff3e 8b9e 8f3e 3b2c 003f d779 dfbd
00000280: 1679 6a3e c56b 84be dbbe a6be b8ec 453d
00000290: 49db 273e 2b3c ecbd e359 403f 9967 39be
000002a0: 03e3 11be da91 b8bd 2c78 6cbe cc64 dc3e
000002b0: bd4d ea3e 5fe6 36be 2bc5 023f 3e3d 84bd
000002c0: 57a0 a2bd 8701 3bbe fca7 6d3e e8fe 933e
000002d0: efb9 0d3f 9569 1e3f 44a6 9c3e 2ca1 883e
000002e0: 4f8a 3bbe 988c 71bc ed1a 0bbd fa1c d53d
000002f0: 1355 0bbe d079 d93e dc3b 1f3f d51f 4dbe
00000300: ea97 0f3f 9aa9 73be d26e 95bd 1e4d 6a3f
00000310: d3ee 103f 4e09 133e 8c0d dabc 1489 5bbd
00000320: 7fb5 d8bd 1d8d e23e 40c3 093f 7172 1d3f
00000330: f4f5 a9bd 60bd 233e 7f3a ac3e 53f2 66be
00000340: a726 a1bd 8834 b9bd a06f 3e3f 7660 df3e
00000350: 0dd8 d83e 4abe 833e 56be 403f b798 9f3f
00000360: fa1f 593f 1619 5e3f b412 10bf ab68 70be
00000370: b0c6 4e3f f59a 92be d61c 6d3f eb0d 3abe
00000380: ab7b 0b3f 13cf eabc 917e b73e 5faf 3ebe
00000390: b4bc b93e 11e5 3cbe 4b47 ca3e c7c5 3e3f
000003a0: 6ab0 5f3f 5fd7 d73e 95ae 1c3f 8966 b83e
000003b0: e371 643f 3b67 1d3f 1c38 20bd 5049 863e
000003c0: 2a92 4e3f 7b1e b6bd 934b 303f b56b 313d
000003d0: c738 25bf 19cd 973f 1437 213f 06fe 193e
000003e0: ad4e 743d c843 b43c ea83 563f 5a33 113f
000003f0: 8e5d d6bd f04f 543f 2581 013d 0e5d ecbe
-0.20614934 -0.12351908 0.3006738 0.6182817 0.6276701 0.15920672 -0.57022995 -0.28964022
0.35337317 0.58056986 0.6130396 -0.043685846 0.14477795 0.0048660813 -0.20859765 -0.12932207
-0.23969741 -0.08683573 0.45476115 0.25806564 0.17592871 -0.66498494 0.13123217 0.26687515
0.12174268 0.12942955 -0.0944043 -0.09258613 0.22685951 -0.26209515 0.34605664 -0.25770232
-0.28852564 0.66311866 0.03591605 -0.11939061 -0.13759878 0.04548643 0.32310593 0.17313802
0.12063874 0.2685456 -0.0057417816 0.63060063 0.062034857 0.18523875 0.27763075 -0.16734327
0.71660405 -0.130066 0.77633774 0.7375023 0.52738786 0.046560556 0.42909265 -0.19395985
-0.70900875 -0.0035652402 -0.059393857 0.26136228 -0.37310308 -0.005448734 0.17674954 0.08834119
-0.26335585 0.46499196 0.49015406 -0.17891413 0.65659595 -0.14963874 0.053853564 -0.20177583
-0.18639944 -0.092252806 0.5969638 0.6543837 0.12518814 -0.08818165 0.031537533 -0.11923003
0.34967437 -0.43635178 -0.007808244 -0.21310277 0.5809387 -0.038700253 0.32245156 0.3980096
0.07173751 -0.56155545 -0.13100494 0.16878234 -0.089682125 0.36585408 -0.129721 0.39967766
0.5959906 0.80502725 -0.15615614 0.24888176 0.1397723 -0.07207556 0.16012765 0.37267953
-0.29482716 -0.17117995 0.45339262 -0.21946774 -0.044472277 -0.7375146 0.6836583 -0.067993805
0.24018 0.511757 -0.06845774 0.3735507 0.6135287 0.4117141 0.3905861 0.20706098
0.4751397 -0.031664487 0.4050297 0.36149538 -0.26165023 0.031015608 -0.046728585 0.8046382
0.29589015 -0.36646885 -0.19442119 0.38488767 0.19668186 -0.17495672 0.006892467 -0.055517897
0.012515877 -0.03505247 0.4654502 -0.7313993 0.36182868 0.18536773 0.37336802 -0.19596535
0.014139722 0.29867384 -0.018357398 -0.00087487756 0.208653 0.6573803 -0.2194648 0.258912
-0.09601253 -0.14750215 0.48309135 0.52939415 0.49862248 0.28050646 0.5006749 -0.10911911
0.22897753 -0.25863472 -0.32567486 0.048321456 0.16392244 -0.11534914 0.75137156 -0.18105926
-0.14246754 -0.09012194 -0.23092717 0.43045652 0.45762435 -0.17861317 0.51082104 -0.064569935
-0.07940739 -0.18262301 0.23208612 0.28905416 0.5536184 0.61879855 0.305956 0.26685464
-0.1831448 -0.014742993 -0.033961225 0.104059175 -0.13606672 0.42475748 0.62200713 -0.20031674
0.5609118 -0.23795167 -0.07296528 0.9152392 0.56614417 0.14359018 -0.026617788 -0.053597525
-0.10581493 0.44248286 0.5381355 0.6150275 -0.08298865 0.1599021 0.3363838 -0.22553377
-0.078687005 -0.09043223 0.74389076 0.4362828 0.42352334 0.25731117 0.7529043 1.246848
0.8481442 0.8675703 -0.5627854 -0.23477428 0.80771923 -0.28633848 0.92622125 -0.18169372
0.5448558 -0.028663194 0.3583875 -0.18621586 0.36276782 -0.18446757 0.39507517 0.74520534
0.8737856 0.42156503 0.6120389 0.36015728 0.8923628 0.6148564 -0.03911601 0.26227808
0.8069178 -0.088925324 0.6886532 0.043315608 -0.6453976 1.1859466 0.6297467 0.15038309
0.059645344 0.022004977 0.83795035 0.5671898 -0.10467063 0.82934475 0.031617302 -0.46164745

l1.bias f4 [8]
00000000: 4d70 a03f d1d9 c23f c679 3f3f 9348 7f3f
00000010: fae9 093f f540 ca3e f59a 253f f848 093f
1.2534271 1.5222722 0.74795187 0.99720114 0.53872645 0.39502683 0.6468957 0.53626966

l2.weight f4 [8, 8]
00000000: 7e0c 7abe c229 c43f d470 eb3b d535 963f
00000010: 5f01 bb3f 8713 65bf f424 0bbf 2e2f af3e
00000020: 4a60 af3f 301b e83f 62da e03e 2af2 563b
00000030: 2590 80bf a46b 603e 0e55 9dbe b9a1 b9bf
00000040: 9676 abbe 5610 3ebe 3606 a8be 248f bebd
00000050: 0264 a4be 38ce a13d 4080 87be bca5 91be
00000060: 7196 c2be 8f50 bfbd e652 72be b38f bcbd
00000070: 35e4 733e b248 babd ee3c 82be f622 ca3d
00000080: 1b7f ee3f 1c76 a7bd 2d30 49bd 6b9f 0f40
00000090: 4a5b 8fbf 585c 07be ab81 4cbf 73e2 bf3e
000000a0: d311 b63e 1a96 4a3f de5e 8ebf d749 9e3f
000000b0: dad9 643f 76bb 9a3f 779e a6bf b449 953f
000000c0: d2ef 833f 3ac0 973f 4da4 c5bf 8fa4 613f
000000d0: a502 923d d5dd 1bbf 4be3 db3e 06bd c23f
000000e0: eaee c13f 27c0 833f 1540 1840 2b3f 07be
000000f0: 840a 2ebf dd25 c0be 7199 2740 5f62 8bbf
-0.24418828 1.5325243 0.007185081 1.1735178 1.4609793 -0.8948292 -0.5435326 0.34215683
1.370126 1.8133297 0.43916613 0.003279815 -1.004399 0.21916062 -0.30728954 -1.4502479
-0.3348891 -0.18560919 -0.3281724 -0.09304646 -0.3210755 0.07900661 -0.26465034 -0.28446758
-0.38005403 -0.09341537 -0.23664436 -0.09207096 0.23817523 -0.09095897 -0.2543711 0.098699495
1.863254 -0.081768245 -0.04911821 2.244105 -1.1199734 -0.1321882 -0.7988536 0.37477455
0.35560474 0.79135287 -1.1122701 1.2366284 0.89394915 1.2088459 -1.301711 1.1663117
1.0307562 1.1855538 -1.5440766 0.8814172 0.07129411 -0.60885364 0.42946848 1.5213935
1.5151036 1.0293015 2.3789113 -0.1320769 -0.67984796 -0.37528887 2.6187403 -1.0889395

l2.bias f4 [8]
00000000: f08c 093f 1c5e 2e3f fde4 05be 4804 87be
00000010: d710 2a3f 8ba9 6b3f 90b3 3a3f de83 4f3f
0.5373068 0.6811235 -0.13075633 -0.26370454 0.66431946 0.9205558 0.7293024 0.8106059

l3.weight f4 [14, 8]
00000000: a706 c63d 17f0 413f 808a 6bbd 7dc1 b8be
00000010: a59a 763e 34b4 38bf 6109 183e b453 ba3d
00000020: f6c4 d9be f060 f93e 8a8a 763e 754d b0bd
00000030: 30c7 ccbe 580a b33e c25d 26bf c0c8 acbe
00000040: 8381 67be 4833 9bbf a0de 80bc 4aa1 46bc
00000050: 1fd4 2d3f e3bb db3e 336b 86be adca 73bf
00000060: aaf9 823f 9155 b63e 2e16 5f3e eca7 1c3c
00000070: ed34 e8bf a2b7 03bf 10b3 b73e dadc 0a3e
00000080: 47ec 763f ccf5 b0bf 0cdd 2fbe aae8 94be
00000090: bd33 d53e 19f0 bb3d c19c 223f 2753 a8bf
000000a0: 9030 c7bf a8b4 2c3e 7868 1dbe 1510 753e
000000b0: 7531 683f 94f9 cdbf 66f5 10bf e229 a13e
000000c0: 553e 82bf 36ed 343f 7457 b93d 1dcd 9d3c
000000d0: 8d37 67bf 22f5 57bf 2cf7 53bf c624 a63e
000000e0: 525e edbe 2cd5 e9be 443f eb3d 9a5d 80bd
000000f0: ffcd 20bf 892c 35bf d9d1 7fbf 15ef 153f
00000100: 4743 233e f62a 203e daeb 7bbe 478e 1d3d
00000110: aa7f 293f ecf0 863c b773 0b3f dd4c 17bf
00000120: e0ef 20bf 776a acbf 50b3 ce3d e7ad 743d
00000130: 0c16 df3e 65bd d4be 7308 433f 77ac a63d
00000140: 294c 4bbf 2ddc ddbf 342b 95be 76d7 263e
00000150: ff5b 87bf 9771 61bf 0c75 343e 9e6e 153f
00000160: 96d8 4e3c 1963 a0bf b62d 303e 96f2 86bd
00000170: 469d 7bbf d02e 4f3f 1d2f 55bf 573a 2dbf
00000180: 3086 c2be ad46 0ac0 e022 65bc 64dd 673e
00000190: 119b b3be 433c 32bf 8269 98bf 1cd7 363f
000001a0: 6628 60bf 629d 78bf cfd4 823e fad4 8a3e
000001b0: 2f86 10bf 0843 fc3e 610e 373f 54d3 f1be
0.096692376 0.75756973 -0.05750513 -0.3608512 0.2408243 -0.7214997 0.14847328 0.09097996
-0.42533082 0.4870677 0.24076286 -0.08608524 -0.39995718 0.3496883 -0.64986813 -0.3374691
-0.22607999 -1.2125025 -0.015731156 -0.012123415 0.67901796 0.42916784 -0.26253662 -0.95231134
1.0232441 0.35612157 0.21785805 0.00956152 -1.8141152 -0.51452076 0.358788 0.1356081
0.9645428 -1.3825011 -0.17174166 -0.2908376 0.41641036 0.09176654 0.6352044 -1.3150376
-1.5561695 0.1686579 -0.15371883 0.23931916 0.90700465 -1.609179 -0.5662445 0.31477267
-1.0175272 0.70674455 0.090498835 0.019262845 -0.9031914 -0.8435842 -0.8279903 0.3244993
-0.46361023 -0.4567045 0.11486676 -0.06267853 -0.62814325 -0.7077108 -0.9992958 0.58567935
0.15943633 0.15641388 -0.24601689 0.038465764 0.66210425 0.016472302 0.5447344 -0.5910166
-0.6286602 -1.346999 0.10092795 0.05973616 0.43571508 -0.41550747 0.7618477 0.08138364
-0.79413086 -1.7332817 -0.29134524 0.1629313 -1.057495 -0.8806395 0.17622775 0.58371913
0.01262488 -1.2530242 0.17204937 -0.06589238 -0.98286855 0.80930805 -0.83275014 -0.67667145
-0.37993002 -2.1605637 -0.013985366 0.22643048 -0.35079244 -0.696232 -1.1907198 0.7142198
-0.87561643 -0.9711515 0.25552985 0.27115613 -0.5645475 0.4926989 0.71506315 -0.47231543

l3.bias f4 [14]
00000000: 515a 17be 8d94 553d 0216 cbbd 750a b43e
00000010: 922b c83d dced 8dbe 55b3 d83c 05f6 1ebd
00000020: 8ca4 84be aca7 843e 63de e03e 83ca 3f3e
00000030: 9aff 98be 3035 833e
-0.14780547 0.052143622 -0.09916307 0.35164228 0.097739354 -0.27720535 0.0264527 -0.03880884
-0.2590679 0.25909173 0.43919668 0.18729596 -0.2988251 0.25626516
