data.pth (torch, 8170 bytes, 6 tensors)

l1.weight f4 [8, 105]
000000 fe 48 e8 3d aa 35 df 3e 3f ea 03 be 22 e4 51 3f
       0.11342047 0.4359563 -0.12882327 0.8198873
000010 f9 35 ff be 90 e1 22 3f d7 11 f7 be 4a b6 af be
       -0.49845865 0.6362543 -0.48255798 -0.34318763
000020 f9 dc 09 be a0 35 cd 3e f6 b9 fb be d8 b8 47 bd
       -0.134632 0.40079975 -0.49165314 -0.048760265
000030 de 5a 97 3e 26 37 25 3e fc 99 46 3e df 64 06 bf
       0.29561514 0.16134319 0.19394678 -0.5249767
000040 84 8d 3b 3e 4c c8 8e 3e 23 9f 1c 3f 4b e8 1a be
       0.18315703 0.2788719 0.61180323 -0.15127675
000050 c6 ab 33 3f c2 e4 7c 3e b5 a0 e3 3e 0b d0 4e 3f
       0.7018398 0.24696639 0.44458547 0.807862
000060 15 13 32 3f 51 16 b4 3e 93 2b 33 3e c4 56 fd 3e
       0.69560367 0.35173276 0.17497091 0.4948026
000070 be 9c 2c be b1 25 be be 46 80 3f be e2 3d a5 3e
       -0.16856667 -0.3713813 -0.18701276 0.32273775
000080 b2 5b 2d bf de 54 6b 3f 9a aa 3b bd 79 d0 f0 be
       -0.6771804 0.9192637 -0.045816995 -0.47034052
000090 36 ba d4 be 53 34 41 3f 08 fc f8 bc f7 70 e3 3e
       -0.41548318 0.75470465 -0.030393615 0.44422123
0000a0 bd 13 14 3f 49 ca 51 bd 78 22 db be 5f 81 0b 3f
       0.5784262 -0.051218305 -0.42799735 0.5449428
0000b0 e6 ea 7e 3f 36 89 af 3e 11 b4 c3 bd 39 af fc 3e
       0.99577177 0.3428437 -0.09555829 0.49352434
0000c0 a1 31 11 3f 59 c8 83 3e 00 b0 e1 3e 79 19 13 3f
       0.5671635 0.2573879 0.4407959 0.57460743
0000d0 e8 33 ff be 90 a5 26 3f 48 42 55 3e a5 79 f5 3e
       -0.4984429 0.6509638 0.20826066 0.4794437
0000e0 16 6d 0f 3f 91 c7 d4 3e ee d0 20 be 79 a0 0d 3f
       0.56025827 0.41558507 -0.157047 0.55322987
0000f0 31 59 24 3f fd 9d 2f 3f ad af 32 3f 57 d8 4f 3e
       0.64198595 0.68600446 0.6979931 0.20297371
000100 0b 0c fa be b9 aa eb 3e 59 40 1a 3f 60 73 d8 3e
       -0.48837313 0.4602869 0.60254437 0.42275524
000110 33 75 08 3d 33 59 17 3f ee c8 9f 3e a1 f7 ed 3e
       0.033314895 0.5912048 0.31207985 0.46477988
000120 90 f7 76 be d9 5b ff be 1d ce fb be 4b fc b6 3e
       -0.24117875 -0.49874762 -0.4918069 0.3573936
000130 00 e4 8b 3e cf 5b 1a 3f 20 45 75 be c0 05 31 be
       0.27322388 0.6029634 -0.2395215 -0.1728735
000140 cf 03 b6 be 99 fe 11 3f 20 6f ae be e4 41 f4 be
       -0.3554978 0.5702911 -0.34069157 -0.4770652
000150 b2 55 c0 3e c0 6d 0b bf 56 4a 12 3f 23 dc 42 3f
       0.3756538 -0.5446434 0.5714468 0.7611715
000160 03 1a c9 3e 28 95 2a 3e 66 de 67 3f f4 fe 4e 3f
       0.39277658 0.16658461 0.9057373 0.8085778
000170 ca 64 0f 3f 5c a3 98 3e 3a 11 ff be 6d e8 fe be
       0.56013167 0.29812133 -0.4981783 -0.49786702
000180 09 cd 08 3f 39 ad 0e 3f 56 1f cb 3e 95 80 a9 3e
       0.5343786 0.55733067 0.39672345 0.33105913
000190 19 9e dc 3e 7c cd 1d 3f b1 08 34 be 7e aa 0b 3f
       0.4308937 0.6164167 -0.1758144 0.54557025
0001a0 6a ff db 3d c8 cf 16 3e ba 13 ab 3c 5c b0 95 bd
       0.10742076 0.147277 0.02088343 -0.073090285
0001b0 3b 35 df be 49 d5 2b 3f 0d d0 c9 3c e7 6f 2b 3f
       -0.435953 0.6712232 0.02463534 0.66967624
0001c0 96 cf 4f 3e 23 8b 17 3d cd af 8d 3e 2a 5e 56 3f
       0.20294032 0.036997925 0.27673188 0.8373743
0001d0 5d 11 a6 3e 54 1d 1d be 71 d8 56 3e d5 c6 10 3e
       0.32435122 -0.15343219 0.20981003 0.14138348
0001e0 63 6d 56 3e 2c 5b c2 3d 1f 24 ed 3d 28 43 8f be
       0.20940165 0.09490046 0.11579155 -0.27980924
0001f0 e3 aa 10 bd 00 9c 96 3c 16 0b 12 3c c4 d7 8b bd
       -0.03531922 0.018384933 0.008913776 -0.068282634
000200 bc e6 66 be 9f 82 0f be 64 84 25 be 89 b3 52 3e
       -0.22548956 -0.14014672 -0.16163784 0.205763
000210 0d e0 2c bc 0c 6d c5 bc 5b ec a5 3e 14 4f 97 3c
       -0.010551465 -0.02409985 0.32406887 0.018470325
000220 24 82 3c 3e 69 61 2a 3f 0c cb b6 be 3c 71 35 3e
       0.1840902 0.66554886 -0.35701787 0.17718977
000230 bd 9d 8f 3e fd ba bf 3e a8 2f 8b be f0 98 e2 bd
       0.28050032 0.37447348 -0.27184796 -0.11064327
000240 92 dd d8 bd ed 6c be be 02 a3 c0 bd b1 bd a6 3e
       -0.10589136 -0.3719248 -0.09406091 0.32566598
000250 76 0c ce 3e 2d df 19 be 50 4a fa bd 75 31 f1 3c
       0.40243882 -0.15026541 -0.12221205 0.029442528
000260 a4 50 b1 3d c6 43 df 3e 67 44 44 3e bd 58 17 3e
       0.08657959 0.43606395 0.19166718 0.14779945
000270 14 3b 99 3e cf 23 2f 3f 94 8e c7 bb ca db 1b bd
       0.29927886 0.68414015 -0.0060899947 -0.038051404
000280 6b 3d 92 3d 75 5a da 3d 0e 31 b7 bd 32 ee aa bd
       0.07140621 0.106617846 -0.08944903 -0.083462134
000290 90 26 9d 3d bb 49 ce be 5c dd 92 be 68 3c e0 bc
       0.07673371 -0.40290627 -0.2868451 -0.027372554
0002a0 6b 46 78 be 03 0d 47 3f 3f db a6 3e 69 48 27 be
       -0.24245612 0.7775423 0.32589146 -0.16336216
0002b0 00 3b 6b 3e 74 37 bb 3d 76 58 10 be 74 af ba bd
       0.22971725 0.09141436 -0.14096245 -0.09115496
0002c0 52 a4 8e 3e 98 4f 41 3e a0 52 24 3f c7 9b 48 3f
       0.2785974 0.18878019 0.64188576 0.783627
0002d0 64 65 16 be da 09 a5 3d 83 c6 c7 bd b8 32 19 3c
       -0.14687115 0.0805852 -0.0975466 0.009350471
0002e0 a5 51 14 3d 2a c4 c8 3e 25 b2 63 be fe 2b 45 3e
       0.036210675 0.3921216 -0.22235925 0.19255063
0002f0 9b 33 3b 3f a3 5d 53 bd d8 39 30 3f 0a f8 08 bf
       0.7312562 -0.05160297 0.6883826 -0.5350348
000300 4d 6a 1a be cb b6 7a 3e 6c 50 96 3e b1 32 8c 3d
       -0.15079613 0.24483792 0.29358232 0.06845606
000310 f5 0e c2 be 38 2b 9b 3d 69 45 4b be 43 4e 46 3f
       -0.37902036 0.07576603 -0.19850697 0.7746317
000320 bb de 62 3f f5 80 be 3e 37 f4 98 3d 21 90 66 3d
       0.8862111 0.3720776 0.07468455 0.056289796
000330 a5 6b 7b bd 3a 85 3f 3d 86 e7 c6 bc 78 ba bd 3b
       -0.061381955 0.046757914 -0.02428032 0.005790051
000340 e1 25 93 3e 87 40 10 3e 07 e3 50 be ab e3 de bc
       0.28739837 0.14087115 -0.20399104 -0.02720817
000350 62 7b 13 be 23 73 39 be 61 10 aa 3e 26 44 70 3e
       -0.14402536 -0.18110327 0.3321562 0.23463497
000360 57 67 58 3f 28 50 9c 3e 22 a8 11 be 37 7e b0 3e
       0.84532684 0.30529904 -0.14224294 0.34471294
000370 40 00 20 3e 0b 7a 39 3e 1e c1 50 3e e6 27 01 3d
       0.15625095 0.18112962 0.20386168 0.03153219
000380 41 53 83 be b7 51 01 3f 6b 84 6a be 5a bd d2 3d
       -0.25649455 0.5051531 -0.22902076 0.10290022
000390 9a d0 17 3f 0f 5c 42 be b6 c6 5e 3e c4 19 56 bf
       0.59302676 -0.1898043 0.2175549 -0.83633065
0003a0 ca 55 4e 3e f9 0d af 3e 1a 76 ba 3e 23 ae 49 3e
       0.20149913 0.34190348 0.3641823 0.19695334
0003b0 90 2c dd 3d 8b 73 b7 b9 d4 69 85 be 57 08 0a 3f
       0.10799515 -0.00034990566 -0.26057303 0.53918976
0003c0 eb 5f 51 be ca 1a 83 3e a9 03 57 3f 27 f7 6f bd
       -0.20446746 0.25606376 0.8398996 -0.058585312
0003d0 e0 ae ae 3e e4 17 e0 3e a8 f7 8b 3e aa be c8 3a
       0.34117794 0.43768227 0.27337384 0.0015315611
0003e0 ce ce 1b be 18 c4 3c 3e 68 c9 63 bd b9 5a 6a be
       -0.15215608 0.18434179 -0.055611998 -0.2288617
0003f0 08 b1 50 3e 29 d5 cf 3e dc 4f ec 3e 70 6b a3 3d
       0.20380032 0.40592316 0.46154678 0.079794765

l1.bias f4 [8]
000000 ed 2e ff 3e 88 ea 98 3f b7 19 56 3f 67 bd b2 3e
       0.4984049 1.1946573 0.8363299 0.34910128
000010 b7 49 12 3f be 8f 3c 3f 22 97 ac 3f f3 c0 9a 3f
       0.5714373 0.73656833 1.3483622 1.2090133

l2.weight f4 [8, 8]
000000 d0 3e c6 3f 26 5c 42 be e0 d9 8e 3f a6 d0 ae 3f
       1.5487919 -0.18980464 1.116024 1.3657424
000010 a4 5b c0 bf 8e 53 41 be 1f 79 98 3e 03 48 b3 3e
       -1.5027966 -0.1887953 0.29779908 0.35015878
000020 ac a6 1b 3f 12 18 be 3e 94 98 d0 3e f1 ce 98 be
       0.60801196 0.3712774 0.40741408 -0.29845384
000030 be ed 8d 3e 9d 21 90 3f e4 60 ad be 40 d9 03 bf
       0.27720445 1.1260258 -0.33862984 -0.5150337
000040 f8 43 69 3f b8 0f 8d 3e ce 89 1d be fc 78 9a bf
       0.9111934 0.27551055 -0.153846 -1.2068172
000050 58 92 d3 be 66 c5 7c bf d9 69 5b 3f 5f 4c 9a 3f
       -0.4132259 -0.98738706 0.85708386 1.2054557
000060 d3 6c 54 3c e5 0b 22 3f 8d d6 98 3e 32 d1 20 3f
       0.012965399 0.632994 0.2985119 0.62819207
000070 08 60 ac bf 46 3c 8b bf c8 1d 41 3f 90 1c 80 3e
       -1.3466806 -1.0877769 0.7543607 0.2502179
000080 22 81 79 be 4c 4b ad bd e0 72 7c bd e5 4e 81 be
       -0.24365667 -0.08461627 -0.06163299 -0.25255504
000090 c9 12 a0 3e 86 5d 09 3e 0e fc 8f be 30 78 50 bd
       0.31264332 0.13414583 -0.2812199 -0.05089587
0000a0 df 19 e9 be 9b 95 96 3f 04 f7 8f be 0f 69 b7 3e
       -0.4552755 1.1764406 -0.28118145 0.3582234
0000b0 46 db b9 3f aa a1 37 bf 6f 57 a3 3f 24 1f a3 3f
       1.4520042 -0.71731055 1.2761058 1.2743878
0000c0 aa 54 8d bf ea e8 9b 3f 93 75 90 3f d8 c8 8b 3e
       -1.1041462 1.2180455 1.1285881 0.2730167
0000d0 a0 14 41 bf f7 31 b3 3f 54 27 67 3f 4e a5 86 be
       -0.75422096 1.3999623 0.90294385 -0.26297992
0000e0 74 a1 fe bd e4 9c a5 bd 84 c1 3d be 68 74 28 bd
       -0.124331385 -0.08086565 -0.18530852 -0.04112664
0000f0 25 3e 05 be 73 81 8c 3e c7 69 2b be 4e 10 24 3e
       -0.13011988 0.27442512 -0.1673957 0.16021845

l2.bias f4 [8]
000000 c0 8e 01 3e 50 eb c8 3e 8a de 71 3f 35 14 8f be
       0.12652111 0.3924203 0.9448019 -0.27945104
000010 a4 14 af be ba cc 24 3f 85 43 17 3f 8e 3a af be
       -0.34195435 0.6437489 0.590874 -0.3422436

l3.weight f4 [14, 8]
000000 ff dd 10 c0 22 2e db 3e 0f a4 f4 bd 3b 3f d7 bf
       -2.2635496 0.42808634 -0.11945354 -1.6816171
000010 00 06 12 bb e1 88 a7 3e b8 76 3c 3f c6 09 03 3e
       -0.0022281408 0.32721618 0.7361865 0.12796697
000020 ed f8 66 bc 5b b8 d2 bf 13 32 7f bf 70 24 1c 3f
       -0.0140974345 -1.6462511 -0.9968578 0.609931
000030 13 d7 aa be 4c f4 a7 bd 09 b4 2f be c4 08 b5 3d
       -0.33367214 -0.08200893 -0.17158522 0.088395625
000040 5a 2b 91 3c 12 89 e0 bf 6f e8 28 3e 0b 22 d7 3e
       0.017720867 -1.754183 0.16494916 0.4201816
000050 e0 45 cc bd 97 ad 68 be d1 00 d5 bf c0 de aa be
       -0.09974265 -0.2272247 -1.6640874 -0.3337307
000060 cb 12 0a c0 ad 85 fc bf 45 eb 17 3f 65 27 a4 bf
       -2.157397 -1.9728295 0.5934337 -1.2824522
000070 65 d4 16 be 53 b7 6e 3f b5 37 13 bf d5 1f 98 3e
       -0.1472946 0.9324848 -0.5750688 0.29711786
000080 ca 59 a9 be 5b d3 21 bf 5b 92 91 bf d3 dd 98 be
       -0.33076316 -0.6321313 -1.1372789 -0.29856738
000090 f0 6e 81 bc 34 a6 12 be a1 1b 2b 3f 76 96 07 3e
       -0.01579997 -0.14321214 0.66839033 0.1324099
0000a0 ea 3f 0f be 90 68 d9 be 3b c6 3d 3f dc ca 9d bf
       -0.13989225 -0.42462587 0.741306 -1.2327533
0000b0 05 e9 a3 be d7 2a 81 3d 21 8a f5 bf 7f b2 66 be
       -0.32013717 0.06306999 -1.9182779 -0.22529028
0000c0 d8 94 a0 3e 5a cf 18 bf 77 23 98 bf 3a d0 b7 bf
       0.3136356 -0.59691393 -1.1885823 -1.4360421
0000d0 58 9d 62 3d ac eb 8a 3d bd 6f b9 be 00 08 e1 bb
       0.055325836 0.06783232 -0.36218062 -0.0068674088
0000e0 22 27 50 be d8 b8 aa bf 4c da 64 bf 6e 68 c4 3e
       -0.20327428 -1.333766 -0.89395595 0.38360924
0000f0 02 5e 49 3e dc c0 f5 3e 67 38 b6 bf e2 e6 4c 3e
       0.19664767 0.47998703 -1.4235963 0.2000995
000100 7b 19 47 bf db b8 e6 bf 72 d5 2d 3f c4 18 7b 3f
       -0.77773255 -1.8025163 0.67903817 0.98084664
000110 83 4d 9f 3e a6 77 9d bd b4 31 53 bd d9 65 95 3e
       0.31113824 -0.07688837 -0.051561072 0.29179266
000120 61 95 1f 3f a2 a3 df be fa 77 9b bf 30 8a fb be
       0.6233731 -0.4367953 -1.2145989 -0.49128866
000130 ea bd 6e be 34 56 bb bf 38 dc 1f be 38 ad d7 3d
       -0.23314634 -1.4635682 -0.1561135 0.10531086
000140 83 92 08 3e b3 a9 6c 3f 0e 38 47 bf 36 2c b0 bf
       0.1333714 0.9244644 -0.7781991 -1.3763492
000150 60 c1 bc bc 7b 91 92 bf b3 1b 95 bf a0 d8 51 3c
       -0.023041427 -1.1450647 -1.1649078 0.012807995
000160 86 62 b1 3d 1d ed 2c be ed f5 6d bf 9c b9 dc bf
       0.0866137 -0.16887327 -0.9295338 -1.7244143
000170 fb 5f 1b be ba 87 bd bf 60 c7 04 3f ff 97 a9 be
       -0.15173332 -1.4807045 0.5186672 -0.33123776
000180 83 4c a8 3e 37 29 7a be 18 f0 c5 3e 93 a9 85 bf
       0.32870874 -0.24429785 0.3865974 -1.0442375
000190 93 68 85 3e d1 97 ca bf a8 41 3a bf 50 1a f9 bd
       0.26056346 -1.5827581 -0.72756433 -0.12163222
0001a0 bd b6 10 3f 81 cd 4f bf db 0f b1 be 66 e3 80 3e
       0.56528836 -0.8117295 -0.3458241 0.2517349
0001b0 f8 b3 10 3d 45 87 9a bf 2d ed bd bf 09 4e 24 be
       0.03532788 -1.2072531 -1.4838005 -0.16045393

l3.bias f4 [14]
000000 3b 5a 28 3f 23 81 4b bf a6 49 94 be 8a 72 8e bc
       0.6576268 -0.7949392 -0.2896244 -0.0173886
000010 42 9e a1 3d 1f 08 ca 3e 80 27 32 3e 6c 87 b2 be
       0.078915134 0.3945932 0.1739788 -0.34868944
000020 c3 01 d3 3d 59 b8 df bd c3 42 bf 3e 32 25 84 bd
       0.103030704 -0.109238334 0.37355623 -0.06452407
000030 5b a7 11 bf 17 8f 85 be
       -0.5689599 -0.2608573
