data.pth (torch, 9322 bytes, 6 tensors)

l1.weight f4 [8, 129]
000000 b7 b0 b0 be ec 42 19 bf b6 5b ab 3e e1 ca 81 be
       -0.34509823 -0.5986774 0.33468407 -0.25350097
000010 80 e5 5f 3f 88 94 2c bf 30 2d 17 3e 81 8b fd be
       0.87459564 -0.6741414 0.14763331 -0.49520496
000020 8e f3 09 bf 68 f5 a6 be 32 69 0c 3f ff fa 33 bf
       -0.5388726 -0.32609105 0.54848015 -0.70304865
000030 2e aa 6d be a8 ab df bd fd fb 66 3e 17 c1 b2 be
       -0.2320945 -0.10921413 0.22557063 -0.3491294
000040 e7 36 40 3e 12 75 a6 be 94 6a 9f bd 05 26 19 3f
       0.18770944 -0.32511193 -0.07784 0.5982364
000050 37 76 93 be bc d1 3e 3e 2d 0f 3b bf fd 82 aa bd
       -0.28801128 0.18634695 -0.7307003 -0.08325765
000060 4b a2 68 3e 7c 4b 28 3e 12 1d 1b be 98 2f a5 3e
       0.2271816 0.16435045 -0.15147808 0.32262874
000070 5e 14 b3 3d 45 1a 19 be de d9 39 be 20 96 69 3d
       0.08744119 -0.14951427 -0.18149516 0.057027936
000080 8a 35 7f be 63 65 85 be 39 f6 42 bd e5 e8 92 be
       -0.24922767 -0.26053914 -0.047598097 -0.2869331
000090 1c c4 3e 3d 75 ad 1b bf 68 ec 7b 3f 1f 61 12 bf
       0.046573743 -0.6081155 0.984076 -0.57179445
0000a0 30 7e c4 3d 1b 2a b4 be 5d 33 11 3f bd 51 6e be
       0.09594381 -0.35188374 0.56719 -0.23273368
0000b0 c5 51 81 be 44 54 19 be 13 52 a8 be f3 9f 4f bd
       -0.25257698 -0.14973551 -0.32875118 -0.05068965
0000c0 38 85 6b be 13 4f c5 be de 0b 69 be 31 35 24 3e
       -0.23000038 -0.3853689 -0.22758433 0.16035916
0000d0 7b 09 35 be 2e 09 2a 3f 83 8a e6 bc 27 fc af be
       -0.17679398 0.6642026 -0.02814222 -0.34372064
0000e0 9d 3b 24 3e a5 93 24 3f 3b 55 3a bd 1f 42 22 3f
       0.16038366 0.6428779 -0.04549144 0.6338214
0000f0 e3 9d 1b 3f 5e e6 26 bf 73 8f 0f 3f 9e 2a 63 3e
       0.6078779 -0.6519526 0.5607826 0.22184226
000100 16 8f 62 be c9 fc 33 bf 20 9b 00 3f 1c 14 27 be
       -0.22124895 -0.70307595 0.502367 -0.16316265
000110 13 75 23 be 75 a7 2b be 49 9e be bd 8d d1 3d 3e
       -0.15962629 -0.16763099 -0.09307534 0.18536969
000120 64 1b 2e 3f bf 3d 7c 3e d3 0b c4 3e a0 6c 28 bf
       0.68010545 0.2463293 0.3829027 -0.6579075
000130 19 b1 0f 3f 7d 17 8f 3e da 5a 20 3f 0d 72 78 be
       0.56129605 0.27947608 0.6263863 -0.24262257
000140 d7 3c 8b be d5 79 d7 3e 67 e4 28 3e c6 34 9d 3d
       -0.27194855 0.42085138 0.16493379 0.07676081
000150 09 09 07 3e eb d1 fa 3d 68 cd 84 3e 82 c9 29 bf
       0.1318704 0.1224707 0.25937963 -0.663231
000160 f4 f5 33 bf 4f 95 c8 ba 9b 6a 83 3e f7 93 5b 3e
       -0.7029717 -0.0015303286 0.2566727 0.21443163
000170 02 b0 08 bf 33 f8 94 be 2a ad 6e be d6 1a 04 be
       -0.53393567 -0.2909561 -0.23308244 -0.12900862
000180 fd 89 a4 be 20 a5 08 bf 25 3f 2f 3e f3 48 1c bf
       -0.32136527 -0.5337696 0.17113931 -0.6104881
000190 19 3a f4 be 39 f9 33 bf 48 23 24 3e e5 c2 42 bf
       -0.47700575 -0.7030216 0.16029084 -0.76078635
0001a0 cc 6e 27 3f 7b 5f 60 3c 57 16 34 be 2d c8 89 3e
       0.6540344 0.013694639 -0.17586647 0.26910535
0001b0 5b 49 38 bf 23 3c a0 be 68 c6 f1 3e af c0 a6 bd
       -0.7198693 -0.3129588 0.47221684 -0.0814222
0001c0 90 f0 84 3e 60 05 00 3f 6b d1 0c 3e 7d 8b 28 bf
       0.25964785 0.500082 0.13751762 -0.6583784
0001d0 33 fe 33 bf fa 82 1d 3f bc 77 64 be 18 95 29 bc
       -0.7030975 0.6152798 -0.223113 -0.010350488
0001e0 aa 8c 3a 3d 34 60 bf 3e 89 d2 aa bd cc 0a af 3e
       0.045544304 0.37378085 -0.08340938 0.34187925
0001f0 9d d5 6e 3c 42 77 1b 3e b8 98 6c be 5c 33 8b 3c
       0.014577297 0.15182212 -0.23105133 0.016992263
000200 4d a9 41 bb f5 3b ce be c6 6d 3e bf 97 ce b7 be
       -0.0029550374 -0.4028012 -0.7438625 -0.35899803
000210 24 01 56 be fd 2a 0b bf e8 fb 04 3f 0a 2f 83 3e
       -0.20898873 -0.5436247 0.5194688 0.25621825
000220 25 1d fc 3e f9 41 79 3e 1e 45 5b be fd 23 02 3f
       0.49240986 0.24341573 -0.21413085 0.50836164
000230 49 25 15 3f 3f c4 02 3f cd 09 2c 3f bd f0 db 3e
       0.5826002 0.510807 0.67202455 0.42957106
000240 2b fc 84 be 2d f6 0e bd 2b ff a0 be 94 c8 bf bd
       -0.2597364 -0.03490274 -0.31444678 -0.09364429
000250 59 b8 00 3f 74 28 98 be ed 9c 5b 3e 72 4f 71 bf
       0.5028129 -0.29718363 0.21446581 -0.9426185
000260 ef 82 2f 3f 69 a8 a5 be af bc 7d 3e 0b f8 30 3f
       0.68559164 -0.3235505 0.24779008 0.69128484
000270 6c fe 0e 3f a3 0d 77 be 6c 16 ca bc c6 92 46 be
       0.55856967 -0.24126296 -0.024668895 -0.19391927
000280 cf 71 4b be 37 fe c5 be 95 8f 78 be 3f af a3 3d
       -0.19867633 -0.38670513 -0.24273522 0.0799241
000290 bd 1a 77 be e3 c6 10 3e 36 c1 12 3f 5d 4d ee be
       -0.24131294 0.1413837 0.57326066 -0.46543398
0002a0 02 b2 0d 3f 7e 33 d6 3e 1a 88 fe 3d d1 e7 8e 3e
       0.55349743 0.4183616 0.12428303 0.27911237
0002b0 2a c6 a7 bd f8 25 9a be a6 0d 1d 3f ee 7d cc be
       -0.08192094 -0.30107093 0.6134895 -0.39939827
0002c0 a7 9f 4e 3d 2c 96 8d be b6 8a 26 3e 09 5b ae be
       0.050445225 -0.27653635 0.16263852 -0.3405383
0002d0 94 c8 ac 3d 3c 77 15 be a9 df 5a 3f d7 f0 33 3f
       0.08436695 -0.14596266 0.8549753 0.7028937
0002e0 2a b0 c5 be f3 be 74 be 64 0f d1 3e 13 b9 9b be
       -0.38610965 -0.23900966 0.40832055 -0.30414638
0002f0 aa b6 ee 3e 0e d1 d0 3e 5e ca 0d 3f 8d df a4 3e
       0.46623737 0.40784496 0.5538691 0.32201806
000300 cc 11 13 3f cd 25 da be a7 73 e2 3e 1f de ad 3e
       0.5744903 -0.42606965 0.4422886 0.33958527
000310 c4 22 b1 3e 11 ba 84 be 02 a6 39 be 59 d5 16 bf
       0.34596837 -0.25923207 -0.18129733 -0.5891929
000320 9f 15 23 3f b7 43 d8 3e 9b c2 48 bd 25 2a 45 3e
       0.63704866 0.42239162 -0.049013715 0.19254358
000330 73 b2 22 3f 26 ac fe 3e 9d 16 21 3f 4a c3 e0 3e
       0.6355354 0.49740714 0.6292513 0.43898994
000340 fc 48 5f be 4e 6f 90 be 72 f0 20 3f 45 dc 2d 3e
       -0.21805185 -0.2820992 0.6286689 0.16978557
000350 3d ff 56 be f6 be 17 3f 9b f5 15 be de 2b eb 3e
       -0.20995803 0.5927576 -0.14644472 0.45931906
000360 0a 67 12 3f 10 53 36 3f 37 07 2f 3f b5 17 02 3f
       0.57188475 0.71220493 0.68370384 0.50817424
000370 02 0d 78 3e 54 4f db be b3 45 d0 be 3c 68 a5 be
       0.24223712 -0.4283396 -0.40678176 -0.32306087
000380 aa 82 65 be ec 65 82 be 24 d4 a4 3e 9c 5c 8f 3e
       -0.22413126 -0.25468385 0.321931 0.28000343
000390 b6 f0 94 3e 2a 2c 13 bf 1b 85 25 3f 8d 3e 93 be
       0.29089898 -0.57489264 0.6465623 -0.2875866
0003a0 2c 29 00 3f 21 b3 15 3f 48 52 02 be 9f f1 89 bd
       0.50062823 0.58476454 -0.127267 -0.06735539
0003b0 e2 d3 93 3e a9 24 45 bf a2 99 88 be 08 ad 2c 3f
       0.2887259 -0.77009064 -0.26679713 0.67451525
0003c0 fa 6b 09 be 9c f7 2f 3f 9a 1e 60 be 92 ee 3e 3f
       -0.13420096 0.68737197 -0.21886674 0.7458278
0003d0 d6 91 2b 3f 79 5e 19 3f b1 bb 0d 3f ed 27 8d be
       0.67019403 0.5990978 0.5536452 -0.27569523
0003e0 d7 c4 51 be 81 c3 78 be 12 1e e6 3e da 1d 10 3f
       -0.20485245 -0.24293329 0.44944817 0.5629555
0003f0 d1 4b 9b be 7a 7d d6 be 63 e2 1d 3e f9 a7 6d be
       -0.3033128 -0.41892606 0.15418391 -0.23208608

l1.bias f4 [8]
000000 5b fd 33 3f 0a fd 7a 3f 8e 84 91 3f 9f b3 8d 3f
       0.70308465 0.98042357 1.1368577 1.1070441
000010 d4 21 40 3f ce 7f 6c 3f 2c 65 23 3f 09 38 62 3f
       0.7505162 0.92382514 0.6382625 0.8836675

l2.weight f4 [8, 8]
000000 ce e8 54 3f 94 20 fe bd a9 58 a0 3f 5b 6a 1d bf
       0.8316773 -0.124085575 1.2527057 -0.6149041
000010 48 a0 77 be 25 4a 8e 3f 88 03 07 3f b9 8d 35 bf
       -0.24182236 1.1116377 0.52739763 -0.70919377
000020 1f c1 70 3f f2 5c c0 3f 7b bb 10 3f bf b1 e9 be
       0.9404468 1.5028365 0.5653607 -0.45643422
000030 82 5b 88 3f 12 05 c9 3d 52 38 f2 3e 31 43 7d bf
       1.0652926 0.0981542 0.47308594 -0.9893065
000040 c3 7d 41 bf 34 8c 50 3f d8 1a 5f 3f 6b d2 ad 3f
       -0.7558252 0.81463933 0.87150335 1.357984
000050 b3 9f a2 bf 50 1a 6a be 75 ed 23 3f db d4 ee 3e
       -1.2704986 -0.228616 0.64034206 0.4664677
000060 a7 56 85 3e de 3e 4a bf 7e a2 9c 3f 7a 1b 85 3f
       0.26042673 -0.7900218 1.2237089 1.039901
000070 e5 c3 55 bf 2f 73 0d 3f ac d6 f8 3e 91 63 85 3f
       -0.83502036 0.5525388 0.48601282 1.042101
000080 2f 84 52 bf 50 5c 9f 3f 1b 9a a5 3f f3 b8 19 3f
       -0.82232946 1.2450047 1.2937654 0.60047835
000090 e8 67 8b 3f bd 7c 73 3f 9b 20 b4 bf a9 11 84 3f
       1.0891085 0.9511221 -1.407245 1.031789
0000a0 de 74 e2 3f 9d ba 74 3f 24 e5 8c bf 08 e0 a6 3f
       1.7691915 0.9559725 -1.1007428 1.3037119
0000b0 4e 82 8d 3e c7 60 6a be 75 cd be 3f 70 29 61 3e
       0.27638477 -0.2288848 1.490645 0.21988463
0000c0 68 79 68 bf a0 09 a6 bf 85 33 89 bd 06 bd 2f 3f
       -0.9081025 -1.2971687 -0.0669928 0.686478
0000d0 c3 40 b7 3f c8 95 a9 3f 70 03 8c 3f fb 60 32 3f
       1.4316639 1.3248835 1.0938549 0.6967923
0000e0 00 a2 13 3c 8c 42 90 bd 14 91 c9 3d 67 8c ac be
       0.009010792 -0.07043943 0.098421246 -0.33700868
0000f0 33 7f 03 be b8 68 6e bd 83 a7 8c be 00 ad 7b bd
       -0.12841491 -0.058205336 -0.2747155 -0.061444283

l2.bias f4 [8]
000000 e1 b3 88 3e d5 7a 84 3e 86 3f 35 3f ac 6f 0b 3f
       0.26699737 0.25874963 0.70800054 0.5446727
000010 95 df 09 3f e8 4a 20 3f 80 b2 b0 3e 5c 6a 96 be
       0.53856784 0.626143 0.34511185 -0.2937802

l3.weight f4 [16, 8]
000000 68 7d c3 bf 81 79 8b bf be ef 3c 3f 2c 40 01 3f
       -1.5272646 -1.0896455 0.7380332 0.50488544
000010 60 f2 3d 3f 95 67 49 bf c4 0f 16 bf 88 be 6a bd
       0.7419796 -0.7867368 -0.58617806 -0.05731061
000020 84 8b f7 be 62 e9 a4 3e 94 66 d5 bd 66 09 93 bf
       -0.4834863 0.32209307 -0.10419956 -1.1487243
000030 8e d0 cf bf d6 30 d6 3e 7b ed 37 bf f1 d0 89 3e
       -1.6235521 0.41834134 -0.7184674 0.26917222
000040 5e 30 6f be ef a6 32 3e cc 51 62 bf 92 09 6b bf
       -0.23358294 0.17446493 -0.8840606 -0.9181148
000050 2a f3 ae bf 5a 0b 34 3e 90 fb 00 3f 70 d0 38 3d
       -1.3667958 0.17582455 0.50383854 0.045120656
000060 ab fb 0c c0 f2 0a cd bf 7b 8c 7e be 19 f8 1d 3e
       -2.2028606 -1.6018965 -0.24858277 0.15426673
000070 7d ef 91 3e cc 5b 62 be 6a 07 7f 3f d9 7d 81 3e
       0.28503028 -0.2210533 0.9962069 0.25291327
000080 7a 0b 0b 3f 31 61 b4 3c 05 36 b0 be 23 a2 de be
       0.54314387 0.022019 -0.34416214 -0.43483075
000090 18 6a 29 3f 7c 4a ce bf 47 33 9c 3d c7 77 b4 3e
       0.6617751 -1.6116481 0.07626968 0.35247633
0000a0 cb 52 94 3f dc a8 1f be c2 89 65 bf 72 d4 70 3e
       1.1587766 -0.15591758 -0.89663327 0.23518541
0000b0 53 ef ed bf 9d e4 6b 3e 66 ae 42 bf 9d 35 9f 3e
       -1.8588661 0.23036428 -0.7604736 0.3109559
0000c0 f9 e5 e7 bf df 8e df bd 38 98 ef 3e d4 8a 59 bf
       -1.8117057 -0.109159224 0.4679582 -0.8497746
0000d0 1e 9d f7 bc 34 ec cc 3d 59 b1 a2 bf 76 ed 4b 3e
       -0.030226287 0.1000599 -1.2710372 0.19914803
0000e0 bb 9f ee bf 95 c6 1d 3e c4 74 7f bf a1 c6 a1 bf
       -1.8642496 0.15407784 -0.99787545 -1.2638742
0000f0 70 61 13 3f c2 fd 73 bf b2 61 06 3f 5a 61 7f 3e
       0.5757055 -0.9530908 0.5249282 0.2493948
000100 07 41 74 3c 85 ac 62 3d bd a4 f9 bd 3e a0 61 3e
       0.014908082 0.05534031 -0.121896245 0.22033784
000110 ee 93 a0 be 73 ca e3 bc b1 5e 2d 3e f9 34 77 be
       -0.3136286 -0.027806496 0.16930653 -0.24141301
000120 97 1a 5b 3e bb fe 04 3f 89 59 c3 bf da b0 92 bf
       0.21396862 0.5195119 -1.5261699 -1.1460221
000130 f9 46 0f bf c3 75 76 3e 23 f8 59 bf e0 5d 32 bd
       -0.5596767 0.2406836 -0.8514425 -0.043546557
000140 c6 ad db bf 88 14 15 3e 14 97 69 bf be 1c 9a bf
       -1.7162406 0.14558613 -0.9124615 -1.2040021
000150 ee ab bd 3e a6 0b b5 3e d3 8f b9 bf 3e 90 5e be
       0.37045234 0.3536045 -1.4497017 -0.21734712
000160 44 08 a7 bf 17 0b d3 be ed 2c 8d 3e 11 31 a1 3d
       -1.3049397 -0.41219398 0.27573338 0.07870687
000170 9e 01 91 bf 5a 5e 03 3f 9c e8 6d bf a6 f8 20 be
       -1.1328619 0.51315844 -0.9293306 -0.15719852
000180 ac ef da bf 33 2b d1 bd 4e 9a c0 bf 47 85 18 bf
       -1.7104392 -0.10213318 -1.504709 -0.59578365
000190 13 71 c6 3e da 77 57 3d 74 aa fb bd 68 65 76 bd
       0.38758144 0.052604534 -0.12288371 -0.060155302
0001a0 72 7a 91 3e 30 72 c0 3e 1a 8d 8d bf cd 12 a4 bf
       0.2841373 0.37587118 -1.1058686 -1.2818238
0001b0 32 1a ff 3e 79 fa 13 bf 93 60 a8 bf d8 d6 b5 bd
       0.49824673 -0.57804066 -1.3154472 -0.08878869
0001c0 5d a8 f4 be 42 bc df bf 61 a4 09 3f ce 39 d9 3e
       -0.477847 -1.7479327 0.5376645 0.42426914
0001d0 81 b5 bd bf 84 b8 ae 3e 7f ce b9 3e 9a c3 8f be
       -1.4821016 0.3412515 0.36290357 -0.2807892
0001e0 8e b4 e2 3e 30 07 e1 bf b7 41 0d be 47 56 18 3f
       0.44278377 -1.7580318 -0.137946 0.5950665
0001f0 5f df 8e 3e ce 61 ec bf af 55 0e 3f 07 f2 a5 3e
       0.27904794 -1.8467348 0.5559949 0.32411215

l3.bias f4 [16]
000000 a9 6d 77 3e 80 15 01 bf 9b 85 1f be a9 46 a2 bc
       0.24162926 -0.5042343 -0.1557831 -0.019809084
000010 81 05 b9 be c6 38 d5 3e 6b 11 bd 3d 75 60 96 3e
       -0.36137012 0.41644877 0.09231838 0.29370466
000020 01 fa 0c be 6f 0a e9 3d 04 05 9b 3e a4 1a 84 bd
       -0.13767244 0.11378943 0.30277264 -0.06450394
000030 0f 0f fd be e6 59 ea bd c3 44 92 3e df 4d 16 bf
       -0.4942555 -0.11442928 0.28568086 -0.5871257
