data.pth (torch, 9322 bytes, 6 tensors)

l1.weight f4 [8, 129]
00000000: 5e58 26bd 2506 383f af36 eb3e 30a8 c03e
00000010: 68bd e7be f45c dabe 1cfd e1bd 2be4 413f
00000020: d852 63ba dcf4 e53e f0db 963e fb6b dabe
00000030: 3ea5 c93e 2fd3 853e 2819 e53e 9e3c 4ebe
00000040: 0f1c 143f f3dc 73be 0537 013f b2e6 603e
00000050: 03fc c13e 95ac b0bd 058b d9be 46af 803e
00000060: 5939 203f cd37 37be 3b58 b43e 21eb e03e
00000070: 39ed a1bd b2c5 9c3e 9dab c73e d4f2 843e
00000080: ee57 c53e f0de ab3e d9da 983e 5955 c33e
00000090: 2af8 1a3d 68cc d13e 8c0e e8be 741f c33e
000000a0: 92eb 123f 931d f83d d093 353e 0a03 923e
000000b0: de9a aa3e 06be 793e 3e9b a43e 8657 c53e
000000c0: 494d ea3e b414 ba3d 1a73 df3e 270c d6ba
000000d0: 1340 9e3e 87f6 bbbd 1371 c33e db37 dc3e
000000e0: 6d74 60be b238 a73e 6ed3 423e ed9c 793e
000000f0: 1f40 db3e 5074 dabe e824 123e 061d 0f3e
00000100: ec80 d43e 84a1 553f a0c2 093f b6c6 b1bc
00000110: 5866 ea3e 4a51 de3e 2636 fbbd c436 62be
00000120: d5c2 f93e 087f 853e 46f7 df3d ef65 dabe
00000130: 14d0 e33e 8f04 8bbe 7077 c13e bbcd 813e
00000140: 1c5b df3e 883a 073f 53c1 1fbe 4e42 cfbd
00000150: 80a8 e3bd 787d b73e 2bdf 063f ad6b dabe
00000160: e168 dabe 4916 8f3e 783c 113f 10a7 c5bd
00000170: 7cdf fe3e 231a d43e e3e1 fa3e 887f b73e
00000180: 83de c13e 8684 903e b691 ebbc b95d 63bd
00000190: cec7 e33e 685b dabe abdd 97bd f3f8 10bf
000001a0: 9e75 223d 5afb a13e 44bb 863e 0c2f dabd
000001b0: 510d e3be 8b8e f3be 9744 0a3f c0e0 5e3e
000001c0: 1525 5dbe 58e4 993e 4eea 05bf ac68 dabe
000001d0: 585d dabe 77a7 a23e baaf aa3e 8aa3 893e
000001e0: e1f0 0b3f 986a bf3e 124e b13e a150 043f
000001f0: 2e1a e83d a10c 7abd 5aa9 c33e 2902 a03e
00000200: cdd6 a93d 7e7b 11bd 0b49 023f 8f99 3f3e
00000210: 568c 84bd 8e75 c6be 412d 27be 2ec1 e2bd
00000220: 01c3 0d3f 8656 4ebd 0aad d53b d849 f93e
00000230: 76f5 26be 2078 5f3e 0027 cf3e f7eb e23e
00000240: fd28 c8be 3260 903e af39 c7be 7d13 f63e
00000250: 66a9 e5bd d77e ce3d e49d 5fbe f19f 39bf
00000260: 6a7f c03e 612d 023f 8c1b 86be 4c37 c33e
00000270: 3713 f03e 4ff1 4abe 3b33 833e 7f2f 833c
00000280: 9338 6f3e e389 b83e cd9c b33e 067d 2d3e
00000290: 7aca 8f3b 8732 fe3d 870e 343e 60e3 c0be
000002a0: 15d6 af3e c6fb 0f3e 9e4a 073e 7b77 0abd
000002b0: b9a2 953e bb7f dcbc 6f7d d23e fe8f c13e
000002c0: f5c5 963e 3033 603d 6261 873d 2eb7 ab3e
000002d0: be7b f63b 4703 6c3e 6f59 5dbe bc49 ee3e
000002e0: d045 663e f075 66be aa4c 103f fd33 a33e
000002f0: d542 1a3f 94ad cc3e c677 01be 142e 433e
00000300: b55b e23d 240f 053e 060b f13e 6f14 393e
00000310: ccc7 2fba 3019 853e 0aa5 413d 8818 babe
00000320: 0f15 84bd c5ca 823e af29 743e 4c9a 70be
00000330: 1463 28be a796 e53e c19f a7be 3d68 fb3e
00000340: 7baa 9c3e 0690 5e3e 5db9 ae3d 7285 3ebe
00000350: 1b43 4dbe 40ac f7bd 2d0e 8b3e c9bf 393e
00000360: dc06 02be c547 14be 6cc6 cc3e dad2 b63e
00000370: b0a4 21be 61a7 b43e dc1c 8c3e 7465 c33e
00000380: 2779 9f3e 6378 913d 8725 063e 8a8b a5be
00000390: 5211 923c 8927 ba3e 862a e7bd 5d4e 77be
000003a0: 99c8 cabe 5a83 4cbe f0cc a93e 10a0 a83e
000003b0: cb56 1ebe 3946 2dbf 972d 07bf c76c ed3e
000003c0: 11b4 363e 2c68 37be 8bd3 d13e bad1 e5be
000003d0: 954b a3bd 1e0b 0dbe de45 0f3f e411 793e
000003e0: ed93 303e ef69 d23e 4f3a ce3e 4629 dc3e
000003f0: 924f 8d3e b127 ffbc 49ed c1bd 1215 143d
-0.040611617 0.71884376 0.45940158 0.37628317 -0.45261693 -0.42649043 -0.11034605 0.7573878
-0.00086717075 0.44913375 0.29464674 -0.42660508 0.39383882 0.26137683 0.44745755 -0.20140311
0.57855314 -0.23814754 0.5047458 0.21963003 0.37887582 -0.086266674 -0.42488876 0.25133723
0.62587506 -0.1789238 0.35223565 0.4392939 -0.07906575 0.3061958 0.38998118 0.25966513
0.38543648 0.33568525 0.29854468 0.38151053 0.037834324 0.40976262 -0.45323598 0.38109934
0.573907 0.12115016 0.17732167 0.28517944 0.3332128 0.24388894 0.3214969 0.38543338
0.4576209 0.0908598 0.43642503 -0.0016330526 0.3090826 -0.09177881 0.38172206 0.43011364
-0.21919413 0.32660443 0.19025967 0.24376269 0.42822358 -0.42666864 0.14271891 0.13975915
0.4150461 0.8344958 0.538126 -0.021701198 0.45781207 0.43421394 -0.12266187 -0.22091204
0.48781458 0.2607348 0.109358355 -0.42655894 0.4449469 -0.27151915 0.37786436 0.25352272
0.43624198 0.52823687 -0.15601091 -0.101200685 -0.11116123 0.35837913 0.5268428 -0.42660275
-0.4265814 0.2794669 0.56732893 -0.09651005 0.4977988 0.4142619 0.49000463 0.35839486
0.37865075 0.28226107 -0.028756004 -0.055509303 0.44488376 -0.42647862 -0.07415327 -0.56629866
0.03966295 0.3163708 0.26314747 -0.10653505 -0.44346097 -0.4756969 0.5401091 0.21765423
-0.21596177 0.30057025 -0.52310646 -0.42657983 -0.4264934 0.3176839 0.33337194 0.26882583
0.5466443 0.37386012 0.34629875 0.5168553 0.113331184 -0.0610472 0.38215142 0.31251648
0.08292923 -0.035518162 0.50892705 0.18710922 -0.064720795 -0.38761562 -0.16325857 -0.11072002
0.5537568 -0.050375484 0.006520872 0.4868915 -0.16304573 0.21823168 0.40459442 0.44320652
-0.39093772 0.2819839 -0.38911197 0.48061743 -0.11213951 0.100827865 -0.21837574 -0.72509676
0.3759721 0.5085049 -0.26192892 0.38128126 0.4688966 -0.19818614 0.25625023 0.016013859
0.23361425 0.360427 0.35080567 0.16942224 0.0043881508 0.12411981 0.17583667 -0.37673473
0.3434302 0.14060888 0.13212058 -0.03380535 0.2922571 -0.026916375 0.41111323 0.3780517
0.29447904 0.054736316 0.06610371 0.33538193 0.0075220754 0.23048125 -0.21616147 0.4654063
0.22487569 -0.22505927 0.5636698 0.318756 0.6025823 0.3997618 -0.12643346 0.19060546
0.11052648 0.12994057 0.47078723 0.18074201 -0.0006705492 0.2599578 0.047276534 -0.3634684
-0.06449329 0.25545326 0.23844026 -0.2349636 -0.16444045 0.448415 -0.3273907 0.49102965
0.30598816 0.21734628 0.08531449 -0.18605593 -0.2004513 -0.12093401 0.27159253 0.18139566
-0.12697929 -0.14480503 0.39995134 0.35707742 -0.1578548 0.3528395 0.27365768 0.3816334
0.3114712 0.0710304 0.13100253 -0.32333022 0.017830525 0.36358288 -0.112874076 -0.24150987
-0.3960617 -0.19971982 0.33164167 0.32934618 -0.15462796 -0.67685276 -0.5280394 0.46372053
0.17842127 -0.17910832 0.40981707 -0.4488657 -0.079734005 -0.13773772 0.55965984 0.24323231
0.17243929 0.41096446 0.4027886 0.4300024 0.2759977 -0.031146856 -0.09469087 0.036152907

l1.bias f4 [8]
00000000: a863 da3e bc9b 393f 2ccd 553f 4d93 9d3e
00000010: 6a54 f13e d2d7 723f 310f 9f3f e7d4 3c3f
0.42654157 0.72503257 0.8351619 0.30776444 0.47134715 0.94860566 1.2426511 0.73762363

l2.weight f4 [8, 8]
00000000: 6627 4b3f 0caa 863f 91d9 acbf 2558 7f3e
00000010: 1e45 fbbe 020b 263e dc63 943f c8fa 263d
00000020: dc99 643e 642b 023f 4757 723f 8869 febe
00000030: d380 20bf 937d ba3f 94e6 a23f 463b fa3c
00000040: e9a4 bb3f 475a 743f 3c54 72be 30ec 9ebe
00000050: e949 6c3f 1049 813f 0475 8d3e 45f5 b4bf
00000060: 2e46 be3f 1e56 503f dc9e 3b3f ba92 e73f
00000070: 08e8 063f b235 073e e5b2 5abf 0e25 7f3f
00000080: 01e8 14bf a1bb f43b 5bac b43f aa33 84be
00000090: 7dc6 bf3e 2eb9 143f 2ea7 653f 0fa4 e93d
000000a0: 23ce 313e def7 dd3e 934c 673e 32b6 9dbe
000000b0: 1a9c c9bd beea 5b3f d526 0a3f 25fe afbf
000000c0: a30f 083f 33e8 a53f 44c9 8b3f c2ad 38bf
000000d0: a2f2 6cbf fdca 6f3f fb5d d63e 8c9e f33f
000000e0: 049a 8bbf f201 49bf 11ef 193f 81d6 f13e
000000f0: 7ec4 b73f 8a74 da3d 9af9 ac3f 0aad bebe
0.7935699 1.0520644 -1.3503896 0.24935968 -0.4907617 0.16215137 1.1592975 0.040766507
0.22324318 0.5084746 0.94664425 -0.4968989 -0.6269657 1.4569572 1.2726617 0.030545842
1.4659702 0.9545025 -0.23664945 -0.31039572 0.9230028 1.0100422 0.27628338 -1.413735
1.4865167 0.81381404 0.73289275 1.8091652 0.526978 0.13204077 -0.8542922 0.99665916
-0.5816651 0.007468656 1.4115099 -0.25820667 0.37456122 0.5809506 0.8970822 0.11408245
0.17363791 0.4335317 0.22587804 -0.30803066 -0.09844227 0.85905063 0.539655 -1.3749434
0.5314886 1.2961487 1.0920796 -0.72140133 -0.9255773 0.9366911 0.41868576 1.903276
-1.0906377 -0.78518593 0.6013041 0.47233966 1.435684 0.10666759 1.3513672 -0.37241393

l2.bias f4 [8]
00000000: 56bc 9e3d b695 293f fadc 943e 767c fabe
00000010: 5493 423f 89e0 53bd a79d 113f 7e13 e03e
0.07750766 0.66244066 0.29074842 -0.4892308 0.76006055 -0.051727805 0.56881183 0.4376487

l3.weight f4 [16, 8]
00000000: 944b 32bf 5a2b d93e 30c2 e6bf 8986 b7bf
00000010: add2 453f 7ba5 f8be 73fa 683f c772 17be
00000020: 97b4 c83e 64e4 a1bf 52f8 883d 9b3f bd3e
00000030: c13b 9abf a591 abbf bfde 683d 67cd c0bf
00000040: 36da cbbf 77f1 87be 1283 753e b427 f23c
00000050: 1a44 0b3e c47c 57bf dc39 a6bf 95a7 763d
00000060: 5f6f d3bf 95bc d53e dd0c adbd 46b6 f0bf
00000070: 53f0 ff3e 5729 523f 2437 90be 1e51 183f
00000080: 5261 8bbf 967b 013f d0b5 9bbe e2dc 2c3e
00000090: 156b 1a3e 6f6a 6cbf 5e33 203f 5824 0bc0
000000a0: 3808 173f b6f0 303e 5f2c 6bbf 13c7 3abf
000000b0: f1fc 873e b773 08be 1caa 76bf a0b2 1c3f
000000c0: 2a5a 603e 1d11 aabe c0e9 6bbf 445b c43e
000000d0: 16e5 b1bf 4e47 44bf da42 d73e 2c42 a3bf
000000e0: 4c41 7fbf 8f70 60bf 8f7b 8e3e 40a8 e63e
000000f0: a3ee 4bbe 1a70 8fbf d764 5dbf 4d3c 47bf
00000100: 081d 283f cf5f c83e 1ea2 603f eb31 eabf
00000110: a404 f5bd 9d57 373f e8f5 b33e 8116 a1bf
00000120: 5c0a 4ebf de1b a5bf e184 85bf cb50 243f
00000130: 4c8d a4bd 845a 09bf 2796 9e3e a651 38bf
00000140: 4ddf c5bf 9059 3ebf 8424 a0bf f525 823e
00000150: 19b0 63be f0d7 edbe a170 75bf 4fb5 2b3f
00000160: 2e50 c03e 62ee 55bf c7a1 dd3e 2d83 3f3c
00000170: 232d d0be c2dd 3abf 134d 44bf 334e cdbe
00000180: 2469 4cbf ae6d 6abf 03b6 2b3f 0b53 6bbf
00000190: 464b 193d 1fda 7bbf 9009 4cbf 645a 123f
000001a0: f449 e2bf 668f fc3d a80b 81bf 37c5 113e
000001b0: 75da 093e 6f47 76bf 8857 b23d 850f 1fbe
000001c0: 3d29 55bf 1b07 043e f414 963e 7087 01be
000001d0: eec8 8f3d fdd3 073f 2666 07be ee40 0fbf
000001e0: bc24 143f 05b5 bebd 99b4 aa3e a03c 04be
000001f0: 5d6b 60bf ac38 9c3e 0c94 193e 920e cabf
-0.69646573 0.42415887 -1.8028011 -1.4337932 0.7727459 -0.48563752 0.91007155 -0.14789878
0.3920028 -1.2647824 0.06687988 0.3696259 -1.2049485 -1.3403822 0.056853052 -1.5062684
-1.5925968 -0.2655141 0.2397578 0.029559948 0.13600197 -0.8417475 -1.2986407 0.060218412
-1.6518363 0.4174544 -0.08449719 -1.8805625 0.4998804 0.8209433 -0.2816707 0.59498775
-1.0889075 0.505792 -0.3041215 0.16881135 0.15079911 -0.92349905 0.6257838 -2.1740932
0.58996916 0.17279324 -0.9186458 -0.72960013 0.26560166 -0.13325392 -0.96353316 0.6121006
0.21909395 -0.3321618 -0.9215355 0.3835088 -1.3898036 -0.766713 0.4204319 -1.2754569
-0.9970901 -0.8767175 0.27828643 0.4505024 -0.19915251 -1.1206086 -0.86481994 -0.77826387
0.656693 0.39135596 0.8774737 -1.8296484 -0.11963776 0.7161806 0.3514855 -1.2584993
-0.8048456 -1.2899129 -1.0431176 0.6418578 -0.08034763 -0.5365374 0.30973932 -0.71999586
-1.5458771 -0.7435541 -1.2511144 0.25419584 -0.22235145 -0.4645381 -0.95874983 0.6707353
0.37561172 -0.8356687 0.4328749 0.01168899 -0.40659437 -0.72994626 -0.76680106 -0.40098724
-0.7984793 -0.9157361 0.670746 -0.9192359 0.037425302 -0.983797 -0.7970209 0.57169175
-1.7678819 0.123320386 -1.0081682 0.14235388 0.13462241 -0.9620275 0.087081015 -0.15533264
-0.8326605 0.12893336 0.2931286 -0.12649322 0.07020746 0.53057843 -0.1322256 -0.5595845
0.5786855 -0.093118705 0.3334091 -0.12913752 -0.87663823 0.30511987 0.14997882 -1.5785697

l3.bias f4 [16]
00000000: 63c0 153f 29de f7bd 49a4 f8be 6de6 41be
00000010: 2733 813e 37df a73e 162c d4be 09ac 713d
00000020: c499 953c 6aff 583e 4307 3d3e ed86 05be
00000030: bb9d 053e f468 0ebf 0f39 a1bd 62f2 aebe
0.58496684 -0.121029206 -0.4856284 -0.18935557 0.2523434 0.32787487 -0.41439885 0.059001956
0.018261798 0.21191183 0.18459801 -0.13039751 0.1304845 -0.55628896 -0.07872211 -0.34169298
