data.pth (torch, 8042 bytes, 6 tensors)

l1.weight f4 [8, 103]
000000 fe 8c 02 be 96 03 0a 3f 83 40 a9 3e be d5 8a 3f
       -0.12749097 0.5391172 0.3305703 1.0846479
000010 ae 3a 49 3f 89 32 f8 bd 0f 29 f0 bd 15 b4 9a 3e
       0.78605163 -0.12119014 -0.11726581 0.30215517
000020 a4 17 a0 3e cb d1 e9 3e 09 f0 41 3f 59 8b 35 3e
       0.31268036 0.45667872 0.7575689 0.17728938
000030 e0 78 91 be 55 04 ab be 67 fd f0 bd bd e7 4a 3e
       -0.28412533 -0.33401743 -0.11767083 0.19814964
000040 36 c5 1c be b3 1a 63 be d5 19 6a 3d 7e 2c c9 3e
       -0.15309605 -0.22178154 0.05715354 0.39291757
000050 16 46 95 be ba c8 4e be 04 44 03 3f 5e 94 f5 bd
       -0.29155034 -0.20193759 0.5127566 -0.119911894
000060 2d e6 48 be a5 c1 b2 be ec a3 07 3f d3 6a 9b 3e
       -0.19619055 -0.34913364 0.529845 0.30354938
000070 dc 75 be 3d 8b fb 64 3e 14 e8 32 3e db 8f b2 3e
       0.09299824 0.22361581 0.17471343 0.34875378
000080 2f 56 93 3f 13 fe 0e 3d 1d ec de 3d 24 2e a4 3e
       1.1510676 0.034910273 0.10884879 0.32066453
000090 f4 ef c1 3d c6 a7 c0 3e 04 bb 74 be 3f a1 95 3e
       0.094695956 0.37628 -0.23899466 0.29224584
0000a0 6a ec a0 3e 82 62 bb 3e 23 33 27 3f 39 22 b6 3d
       0.3143037 0.36598593 0.65312403 0.08893246
0000b0 3c b2 a0 be 6d f4 8a 3e c4 b5 14 3f bc f1 09 3f
       -0.31385982 0.27139607 0.5808985 0.5388448
0000c0 3f 67 39 be 41 bc 02 3f 3c 36 34 3f da 7b 41 3f
       -0.18105792 0.510685 0.70395255 0.7557961
0000d0 bc 30 ed bb 5d b8 6d 3e 70 1e 28 3f e9 84 19 bf
       -0.0072384756 0.2321486 0.65671444 -0.5996843
0000e0 95 9d 24 3f c5 42 a2 3e d8 77 40 3e 81 ea 4b 3d
       0.6430295 0.31691566 0.18795717 0.049784187
0000f0 31 e5 90 be 03 3e da be 20 d8 4f 3f f9 d9 ba 3e
       -0.2829986 -0.42625436 0.81189156 0.36494425
000100 60 41 70 bf fb eb 0b 3f da c3 de be 56 cb 9a be
       -0.93849754 0.5465695 -0.43508798 -0.30233258
000110 40 38 19 3f de 2a b2 3e 51 79 85 be 78 8a 41 3f
       0.59851456 0.3479833 -0.2606912 0.7560191
000120 25 01 3c 3f 1f fb 43 be 36 88 a4 be d0 15 8e be
       0.73439246 -0.19138764 -0.3213517 -0.27751017
000130 6b a8 07 be 63 28 b3 3e df 6e db bd d5 ad 24 3f
       -0.1324784 0.3499175 -0.10714506 0.64327747
000140 c7 a0 9b 3e 23 79 3c 3f 4e b0 1c 3f 71 ac 81 3f
       0.303961 0.7362234 0.6120652 1.013075
000150 09 a8 3f be 6e 1a 48 be cd 9a 0b bf 47 7f 73 bd
       -0.18716444 -0.19541332 -0.5453308 -0.059447553
000160 24 31 c2 3e 2c 3a ab 3d b0 10 57 3f 01 94 55 bf
       0.37928116 0.08360705 0.8400984 -0.8342896
000170 33 f8 47 3f aa 03 39 3f 03 a8 f2 3e 09 65 d6 3e
       0.78113097 0.72271216 0.47393808 0.4187396
000180 a7 57 31 3e d6 1b b4 be aa 19 21 3f 58 17 fd bd
       0.17318593 -0.35177487 0.62929785 -0.12357968
000190 2b 04 92 3e b2 79 ad 3d 6e 1b 28 be 43 4a 0a 3f
       0.28518805 0.08470477 -0.16416714 0.54019564
0001a0 d0 57 ad be 44 29 89 3e cf 39 06 3f 88 ec 2e bf
       -0.33856058 0.26789296 0.5243196 -0.6832967
0001b0 67 db 27 3d bb af e2 be 43 05 e9 3e 02 31 85 3e
       0.040980723 -0.44274697 0.45511827 0.26013952
0001c0 b0 5b 12 3f 21 be 33 bf 2b 7a 0d 3f 4e fc 0d be
       0.57171154 -0.7021199 0.5526454 -0.13865778
0001d0 22 0f d3 3c 56 49 a4 3e 2f fb 67 be 79 e0 73 3e
       0.025764052 0.320872 -0.22654413 0.23816098
0001e0 b3 80 83 bd 32 d3 06 3f a4 0c bb 3e e8 00 4b 3e
       -0.06421032 0.5266601 0.36533082 0.19824564
0001f0 7e 04 7d be 40 e7 03 3f 0f 7d 4b 3e da 01 7f be
       -0.24708745 0.51524734 0.19871925 -0.2490305
000200 2b 2f 56 3d 4c 75 db be dc 76 89 3e 2f fc b9 be
       0.052291077 -0.42862928 0.26848495 -0.36325213
000210 d8 c9 7f 3e 83 46 83 be c7 85 0a bf d2 5f d4 3e
       0.24979341 -0.25639734 -0.5411038 0.41479355
000220 18 3a 09 3c b5 f0 6b 3e 1e f6 2e 3e da d7 24 3f
       0.008375667 0.23041041 0.17086074 0.64391863
000230 48 65 60 3e 3a c5 ee bd 85 8d d0 bb 56 4a b3 3e
       0.21913636 -0.11658712 -0.0063645267 0.3501765
000240 c4 3b 4b 3e 5f ac 2b 3f 73 af 10 3f d7 7b 82 be
       0.19847018 0.6705989 0.56517714 -0.25485107
000250 ee ec 6a 3e fc 1d da be 73 42 56 3f e8 d1 08 3f
       0.22941944 -0.42601 0.83695143 0.5344529
000260 a8 47 51 3f e4 84 34 3f c1 d2 32 bf e3 fe 2f 3f
       0.81749964 0.70515275 -0.69852835 0.687483
000270 69 78 39 be 66 3f 9c be 61 05 1d 3c 32 65 0e bf
       -0.18112339 -0.3051712 0.009583802 -0.5562316
000280 df 09 7b 3e ee 2e d4 be d5 41 56 3f c9 33 b6 3d
       0.24515484 -0.41442055 0.836942 0.08896596
000290 15 28 74 be 93 2d 36 bf d3 34 16 3f 80 fb 3f 3e
       -0.23843415 -0.7116329 0.58674353 0.18748283
0002a0 f6 00 4c 3f 5a 63 b8 be 79 62 4d 3d 80 0b 8e be
       0.79688966 -0.360133 0.05014274 -0.2774315
0002b0 be 64 5c be 89 6b 53 be 9d 04 29 bf 78 3f 26 bf
       -0.21522805 -0.2064649 -0.66022664 -0.64940596
0002c0 98 fa 03 be ee 39 75 3a 1d 21 ca 3d 61 e3 68 be
       -0.12888563 0.00093546405 0.09869597 -0.22742988
0002d0 c6 4a 91 3e 72 f7 45 bf b0 88 39 be 54 68 06 3f
       0.2837736 -0.77330697 -0.18118548 0.5250294
0002e0 23 ed 3f bf 4c fb a5 be 9a 56 39 bf 3f 36 ff 3e
       -0.74971217 -0.32418287 -0.7239777 0.49846074
0002f0 61 75 15 3e 9a 5d 1b 3f 1e 6e bc 3e d9 fb ef 3e
       0.14595558 0.606897 0.36802763 0.46871832
000300 4d 81 54 be d6 30 54 be e7 66 7e 3c 26 84 52 bf
       -0.2075245 -0.20721754 0.0155274635 -0.8223289
000310 61 c4 4e bf 9a 18 45 3f 09 ee b7 be 9e 0c f5 3e
       -0.807684 0.76990664 -0.35923794 0.4786119
000320 99 31 86 be 0e fa c7 be d9 33 3f 3e 64 d5 c1 3e
       -0.26209715 -0.39057964 0.18672122 0.37858117
000330 45 b8 9c 3e 79 ee c2 3e a8 23 92 bd 76 4c b3 be
       0.30609336 0.38072565 -0.07135707 -0.35019273
000340 e1 ea 33 be 7e 53 04 bf 9e f9 0c bf c6 f0 0f 3d
       -0.17570068 -0.516899 -0.55068386 0.03514173
000350 7a c4 96 3f ad 4a d4 bb 7d f9 14 bc ef 2a 11 3f
       1.177871 -0.0064786286 -0.009092686 0.56706136
000360 bb f9 0c bf 4f 1b fc 3e 41 91 20 3f 1e a6 b7 3e
       -0.5506856 0.49239585 0.6272164 0.35868925
000370 cf 2c 66 be 0f c5 cd 3e e4 1d be bd 84 50 04 3f
       -0.2247803 0.40189406 -0.09283045 0.5168536
000380 e6 ae b9 bd 18 97 1b bd 72 74 d0 3d 0f 6b 27 3f
       -0.09066562 -0.03798589 0.1017846 0.65397733
000390 7a 41 5e be 0d c7 0d 3e c7 8e 07 3f c8 82 fe 3e
       -0.21704665 0.13845463 0.52952236 0.49709153
0003a0 14 82 bc be cc f0 24 bc e5 24 e8 3e 4b ef 05 be
       -0.36817992 -0.010067176 0.45340648 -0.13079564
0003b0 87 05 54 3e 41 d0 43 3f 79 8b 0f bf c6 47 16 3f
       0.20705234 0.76489645 -0.56072193 0.5870327
0003c0 4f 3a ce 3e 94 03 7b 3e 01 6f 0f bd 91 a2 1b be
       0.4027886 0.24513084 -0.03501797 -0.15198733
0003d0 b4 12 17 3f aa ec 7c 3e fa 8b 88 bd 20 aa a9 3e
       0.59012914 0.24699655 -0.066673234 0.33137608
0003e0 4e 6a 49 3f 1c 1b f1 3e ec c1 18 3f f0 23 0e be
       0.78677833 0.47090995 0.596709 -0.13880897
0003f0 ce 93 e1 be 79 20 3e 3f 14 81 fa bd 40 32 4c 3f
       -0.4405808 0.742683 -0.12231651 0.79764175

l1.bias f4 [8]
000000 39 a0 ae 3f 0c b8 67 3f 71 f6 0c 3f d7 c8 9c 3f
       1.3642646 0.9051521 0.5506354 1.2248791
000010 25 81 09 3f 32 ca 8d 3f 12 cb 09 3f 59 a8 d0 3e
       0.53712684 1.107733 0.53825486 0.4075344

l2.weight f4 [8, 8]
000000 a4 04 80 3f d7 a4 e1 3f 80 18 e0 3e 6c 30 9f 3e
       1.0001416 1.762843 0.43768692 0.3109163
000010 fa 72 96 bf 8c 32 af bf b6 5f ae 3f ca b5 a3 3f
       -1.1753838 -1.3687301 1.3622959 1.2789853
000020 72 03 ec bd 00 04 13 be 84 1f ff 3d 3d 95 71 be
       -0.11524095 -0.14356995 0.12457183 -0.23592086
000030 6e 28 af be 22 fd 02 3e b8 d8 0a bd d0 0e 62 be
       -0.34210533 0.12791875 -0.033898085 -0.22075963
000040 50 dc 91 3f 64 1a 93 bf 2d 31 7d be 23 8c fb 3d
       1.1395359 -1.1492429 -0.2472579 0.12282588
000050 5b 79 98 3f 0e 0e 78 3c 66 a8 1e 3d 01 91 1f be
       1.1912035 0.01514007 0.038734816 -0.15582658
000060 38 b2 92 be fd 95 47 be de 73 78 3e 96 e2 73 be
       -0.28651595 -0.1949081 0.2426295 -0.23816904
000070 f4 65 a5 be 53 94 ad be 69 59 66 be 97 fd 9a be
       -0.32304347 -0.33902225 -0.22495045 -0.302716
000080 92 85 9a bf f8 89 04 3f c7 f4 ce 3f 51 7a 05 3f
       -1.2072012 0.51773024 1.616845 0.52139765
000090 41 b1 bc bd 5b 84 88 3f 8d 35 82 3c 44 5f fd 3e
       -0.09213496 1.0665392 0.015894676 0.49486744
0000a0 50 fc a6 be e4 6d 9c be 45 b7 91 be 60 d4 f4 3c
       -0.32614374 -0.3055259 -0.28460136 0.029886425
0000b0 21 f9 a5 3e b4 f9 97 be f4 31 86 be 68 2d 9b 3d
       0.32416633 -0.29682696 -0.26209986 0.0757702
0000c0 62 11 9a 3e 9b 9e 76 be 98 b9 bf 3f b9 c1 9e 3f
       0.30091387 -0.2408394 1.4978514 1.240287
0000d0 6d 68 81 3f 2a 92 00 be 8c 51 c8 3f ab 48 73 bf
       1.0109993 -0.12555757 1.5649886 -0.9503276
0000e0 5f 0c ba 3f 55 89 a1 3f da 23 83 bf 8b 26 db 3f
       1.4535025 1.2620035 -1.0245316 1.7121137
0000f0 64 3f 10 3f ca f1 be 3f d0 c6 7b bf aa d3 4b bf
       0.56346726 1.4917538 -0.9835024 -0.7961985

l2.bias f4 [8]
000000 f4 6f 29 3f 72 de 84 be f9 1f 21 bd 5d 37 07 be
       0.6618645 -0.25950962 -0.039337132 -0.13204713
000010 b0 35 9c bd c4 5d 6a be ce c7 bc be 08 71 9b 3f
       -0.076274276 -0.22887331 -0.3687119 1.2143869

l3.weight f4 [14, 8]
000000 51 6d b0 bf f0 a3 f7 3d 19 db 8b 3e af 0a 90 be
       -1.3783361 0.120918155 0.27315596 -0.2813315
000010 6d a8 0b c0 b2 72 5d be 97 05 56 be 75 b3 58 3f
       -2.182155 -0.21625784 -0.2090057 0.8464883
000020 c1 22 d5 be 38 5e 71 bd 4e ad 47 bf 90 11 09 3d
       -0.41628078 -0.058927745 -0.77998817 0.033464015
000030 45 fa 24 be 7c 8e 97 3d a8 8f ca 3e 79 68 88 bf
       -0.16111095 0.074002236 0.39562726 -1.0656883
000040 ff 34 bb bd 6f 3b aa 3e 3e 08 38 3f 90 78 4a bd
       -0.091409676 0.3324847 0.71887577 -0.049431384
000050 5c 87 c5 bf 5f 95 a4 3e 41 7e c0 be 5f ba 32 be
       -1.5431933 0.3214521 -0.37596324 -0.17453907
000060 2d 64 4b bf 94 17 cf 3d f5 96 f4 bf 46 9a 63 3e
       -0.7944973 0.10111919 -1.9108568 0.2222682
000070 21 0b 10 bf cd 3f 9b 3e c7 52 ee bf 1a 64 74 3f
       -0.5626698 0.30322114 -1.8619012 0.9546524
000080 03 4a 86 bf 00 9e cc bd 4b 09 91 bd 74 a5 9f bd
       -1.0491337 -0.099910736 -0.070818506 -0.077952296
000090 58 b3 c6 be 1a ee 18 3e 7f 22 d7 3e b0 57 6f 3d
       -0.38808703 0.14934579 0.42018506 0.058433235
0000a0 b8 11 e1 3e bc 82 01 3e 0e 0c a0 3e e8 8e 76 3d
       0.4395883 0.12647527 0.31259197 0.06019488
0000b0 c7 da 01 c0 ae 82 a8 be 95 4b d5 bf d2 d0 7e 3e
       -2.028978 -0.329122 -1.6663691 0.24884346
0000c0 61 07 7b bf df 28 83 3e 79 5b 6b bf fe c6 07 be
       -0.98058134 0.2561712 -0.9193645 -0.13259503
0000d0 b3 f7 14 3f 50 00 ac 3d dc 01 7f be 76 f3 a3 bf
       0.5819046 0.08398497 -0.24903053 -1.2808673
0000e0 1a 2f 2d 3f 0a 26 19 3e d7 3a 9c bf f2 9e 4e 3e
       0.67649996 0.14955917 -1.2205456 0.2017782
0000f0 9e 61 fa bf 5a bd 51 3e 8c 5c c1 be 51 f7 8d bf
       -1.956104 0.20482388 -0.3776592 -1.10911
000100 8c 73 a7 3e d0 a1 b0 3c 1e 1f 16 bf aa d4 77 3e
       0.32705343 0.021561533 -0.5864123 0.24202219
000110 86 e2 66 bf b8 34 8b be 80 7a ca 3d 0d 2d 1a be
       -0.901894 -0.2718866 0.09886646 -0.15056248
000120 fb fd 5c 3f 31 0f aa 3e 74 c6 9a bf f0 45 8b bd
       0.86325043 0.33214715 -1.2091813 -0.06800449
000130 ef 06 81 bf 25 a1 67 be e0 4e e4 bf 07 f4 59 bf
       -1.0080241 -0.22620066 -1.7836571 -0.8513798
000140 0c 36 73 3e 28 b9 b4 3d b8 b4 5a bf 56 2f ae be
       0.23751086 0.08824378 -0.85432005 -0.3402049
000150 08 f6 84 3e 1a c9 a6 be 1c 4d a9 bf 10 1b 59 bf
       0.25968957 -0.32575303 -1.3226657 -0.8480692
000160 1d e4 ab bf 64 b8 28 be e0 46 5e 3e 3b 21 aa 3e
       -1.342899 -0.1647659 0.21706724 0.33228478
000170 aa 3b fd bd 10 b8 08 3d 16 35 ef 3e 36 27 9b bf
       -0.12364896 0.03337866 0.4672019 -1.2121341
000180 d7 6f a8 bf 53 46 89 3e 87 62 7c bf 40 8f 97 3b
       -1.3159131 0.26811466 -0.9858784 0.004625231
000190 d4 1b cf 3e 16 ab 20 3e 08 54 76 bf 09 a7 f7 bd
       0.4045092 0.15690264 -0.9622197 -0.12092406
0001a0 ae 7a ae be 98 80 a2 be f5 b8 bc 3e d0 45 d2 3c
       -0.34077972 -0.31738734 0.3685986 0.025668055
0001b0 60 f7 e9 bf 72 f9 64 3e 4c b4 be 3e 20 8c 21 bf
       -1.8278618 0.22360781 0.3724693 -0.6310444

l3.bias f4 [14]
000000 63 ce 09 ba dc 4a 3c be a5 92 62 bf cd e3 52 3f
       -0.0005256889 -0.18387932 -0.8850501 0.82378846
000010 f7 28 2c bf ab ac a1 be 59 cf 5d be 20 a1 12 bf
       -0.6725001 -0.31577048 -0.21661128 -0.5727711
000020 9b ed 8d 3e 5c 48 e6 3e 05 8a d5 3d fe bf fa bd
       0.2772034 0.4497708 0.10426716 -0.12243651
000030 3c 21 a5 3e c3 3b 08 bf
       0.32251918 -0.5321619
